…
I0622 11:18:07.132042 17776 net.cpp:294] The NetState phase (0) differed from the phase (1) specified by a rule in layer data
I0622 11:18:07.132140 17776 net.cpp:51] Initializing net from parameters: 
name: "unet"
state {
  phase: TRAIN
}
layer {
  name: "data"
  type: "Python"
  top: "data"
  top: "label"
  top: "weight"
  include {
    phase: TRAIN
  }
  python_param {
    module: "spine_layer"
    layer: "Spine_layer"
    param_str: "{\'seed\': 1337, \'inputLabelFiles\': \'/home/atemmar/Documents/Data/FromFirasPng//train_tmp.txt\', \'dir\':\'/home/atemmar/Documents/Data/FromFirasPng/\'}"
  }
}
layer {
  name: "conv1a"
  type: "Convolution"
  bottom: "data"
  top: "conv1a"
  param {
    lr_mult: 1
  }
  param {
    lr_mult: 2
  }
  convolution_param {
    num_output: 32
    pad: 1
    kernel_size: 3
    stride: 1
    weight_filler {
      type: "xavier"
    }
    bias_filler {
      type: "constant"
      value: 0
    }
    engine: CAFFE
  }
}
layer {
  name: "relu1a"
  type: "ReLU"
  bottom: "conv1a"
  top: "conv1a"
  relu_param {
    engine: CAFFE
  }
}
layer {
  name: "conv1b"
  type: "Convolution"
  bottom: "conv1a"
  top: "conv1b"
  param {
    lr_mult: 1
  }
  param {
    lr_mult: 2
  }
  convolution_param {
    num_output: 32
    pad: 1
    kernel_size: 3
    stride: 1
    weight_filler {
      type: "xavier"
    }
    bias_filler {
      type: "constant"
      value: 0
    }
    engine: CAFFE
  }
}
layer {
  name: "relu1b"
  type: "ReLU"
  bottom: "conv1b"
  top: "conv1b"
  relu_param {
    engine: CAFFE
  }
}
layer {
  name: "conv1c"
  type: "Convolution"
  bottom: "conv1b"
  top: "conv1co"
  param {
    lr_mult: 1
  }
  param {
    lr_mult: 2
  }
  convolution_param {
    num_output: 32
    pad: 1
    kernel_size: 3
    stride: 1
    weight_filler {
      type: "xavier"
    }
    bias_filler {
      type: "constant"
      value: 0
    }
    engine: CAFFE
  }
}
layer {
  name: "relu1c"
  type: "ReLU"
  bottom: "conv1co"
  top: "conv1c"
  relu_param {
    engine: CAFFE
  }
}
layer {
  name: "pool1"
  type: "Pooling"
  bottom: "conv1c"
  top: "pool1"
  pooling_param {
    pool: AVE
    kernel_size: 3
    stride: 2
    engine: CAFFE
  }
}
layer {
  name: "conv2a"
  type: "Convolution"
  bottom: "pool1"
  top: "conv2a"
  param {
    lr_mult: 1
  }
  param {
    lr_mult: 2
  }
  convolution_param {
    num_output: 32
    pad: 1
    kernel_size: 3
    stride: 1
    weight_filler {
      type: "xavier"
    }
    bias_filler {
      type: "constant"
      value: 0
    }
    engine: CAFFE
  }
}
layer {
  name: "relu2a"
  type: "ReLU"
  bottom: "conv2a"
  top: "conv2a"
  relu_param {
    engine: CAFFE
  }
}
layer {
  name: "conv2b"
  type: "Convolution"
  bottom: "conv2a"
  top: "conv2bo"
  param {
    lr_mult: 1
  }
  param {
    lr_mult: 2
  }
  convolution_param {
    num_output: 32
    pad: 1
    kernel_size: 3
    stride: 1
    weight_filler {
      type: "xavier"
    }
    bias_filler {
      type: "constant"
      value: 0
    }
    engine: CAFFE
  }
}
layer {
  name: "relu2b"
  type: "ReLU"
  bottom: "conv2bo"
  top: "conv2b"
  relu_param {
    engine: CAFFE
  }
}
layer {
  name: "pool2"
  type: "Pooling"
  bottom: "conv2b"
  top: "pool2"
  pooling_param {
    pool: AVE
    kernel_size: 3
    stride: 2
    engine: CAFFE
  }
}
layer {
  name: "conv3a"
  type: "Convolution"
  bottom: "pool2"
  top: "conv3ao"
  param {
    lr_mult: 1
  }
  param {
    lr_mult: 2
  }
  convolution_param {
    num_output: 32
    pad: 1
    kernel_size: 3
    stride: 1
    weight_filler {
      type: "xavier"
    }
    bias_filler {
      type: "constant"
      value: 0
    }
    engine: CAFFE
  }
}
layer {
  name: "relu3a"
  type: "ReLU"
  bottom: "conv3ao"
  top: "conv3a"
  relu_param {
    engine: CAFFE
  }
}
layer {
  name: "pool3"
  type: "Pooling"
  bottom: "conv3a"
  top: "pool3"
  pooling_param {
    pool: AVE
    kernel_size: 3
    stride: 2
    engine: CAFFE
  }
}
layer {
  name: "deconv4"
  type: "Deconvolution"
  bottom: "pool3"
  top: "deconv4"
  param {
    lr_mult: 1
  }
  param {
    lr_mult: 2
  }
  convolution_param {
    num_output: 32
    pad: 1
    kernel_size: 4
    stride: 2
    weight_filler {
      type: "xavier"
    }
    engine: CAFFE
  }
}
layer {
  name: "concat4"
  type: "Concat"
  bottom: "conv3ao"
  bottom: "deconv4"
  top: "deconv4ao"
}
layer {
  name: "relu4"
  type: "ReLU"
  bottom: "deconv4ao"
  top: "deconv4r"
  relu_param {
    engine: CAFFE
  }
}
layer {
  name: "deconv5"
  type: "Deconvolution"
  bottom: "deconv4r"
  top: "deconv5"
  param {
    lr_mult: 1
  }
  param {
    lr_mult: 2
  }
  convolution_param {
    num_output: 32
    pad: 1
    kernel_size: 4
    stride: 2
    weight_filler {
      type: "xavier"
    }
    engine: CAFFE
  }
}
layer {
  name: "concat5"
  type: "Concat"
  bottom: "conv2bo"
  bottom: "deconv5"
  top: "deconv5ao"
  concat_param {
    concat_dim: 1
  }
}
layer {
  name: "relu5"
  type: "ReLU"
  bottom: "deconv5ao"
  top: "score"
  relu_param {
    engine: CAFFE
  }
}
layer {
  name: "deconv6"
  type: "Deconvolution"
  bottom: "score"
  top: "deconv6"
  param {
    lr_mult: 1
  }
  param {
    lr_mult: 2
  }
  convolution_param {
    num_output: 32
    pad: 1
    kernel_size: 4
    stride: 2
    weight_filler {
      type: "xavier"
    }
    engine: CAFFE
  }
}
layer {
  name: "concat5"
  type: "Concat"
  bottom: "conv1co"
  bottom: "deconv6"
  top: "deconv6ao"
}
layer {
  name: "relu6"
  type: "ReLU"
  bottom: "deconv6ao"
  top: "deconv6r"
  relu_param {
    engine: CAFFE
  }
}
layer {
  name: "convX"
  type: "Convolution"
  bottom: "deconv6r"
  top: "score-final"
  param {
    lr_mult: 1
  }
  param {
    lr_mult: 2
  }
  convolution_param {
    num_output: 2
    pad: 1
    kernel_size: 3
    stride: 1
    weight_filler {
      type: "xavier"
    }
    bias_filler {
      type: "constant"
      value: 0
    }
    engine: CAFFE
  }
}
layer {
  name: "loss"
  type: "SoftmaxWeightedWithLoss"
  bottom: "score-final"
  bottom: "label"
  bottom: "weight"
  top: "loss"
  loss_param {
    normalize: false
  }
  softmax_param {
    engine: CAFFE
  }
}
I0622 11:18:07.132210 17776 layer_factory.hpp:77] Creating layer data
I0622 11:18:07.132400 17776 net.cpp:84] Creating Layer data
I0622 11:18:07.132406 17776 net.cpp:380] data -> data
I0622 11:18:07.132413 17776 net.cpp:380] data -> label
I0622 11:18:07.132418 17776 net.cpp:380] data -> weight
Initialisation ...
…
indice y :  ./Subject3_2009_Gtruth_volume.nii/Subject3_2009_Gtruth_volume.nii-slice016.png
indice y :  ./Subject3_2009_Gtruth_volume.nii/Subject3_2009_Gtruth_volume.nii-slice083.png
indice y :  ./Subject3_2009_Gtruth_volume.nii/Subject3_2009_Gtruth_volume.nii-slice183.png
indice y :  ./Subject3_2009_Gtruth_volume.nii/Subject3_2009_Gtruth_volume.nii-slice192.png
indice y :  ./Subject3_2009_Gtruth_volume.nii/Subject3_2009_Gtruth_volume.nii-slice219.png
indice y :  ./Subject3_2009_Gtruth_volume.nii/Subject3_2009_Gtruth_volume.I0622 11:18:10.883935 17776 net.cpp:122] Setting up data
I0622 11:18:10.883954 17776 net.cpp:129] Top shape: 1 1 96 304 (29184)
I0622 11:18:10.883955 17776 net.cpp:129] Top shape: 1 1 96 304 (29184)
I0622 11:18:10.883957 17776 net.cpp:129] Top shape: 1 1 96 304 (29184)
I0622 11:18:10.883960 17776 net.cpp:137] Memory required for data: 350208
I0622 11:18:10.883962 17776 layer_factory.hpp:77] Creating layer conv1a
I0622 11:18:10.883975 17776 net.cpp:84] Creating Layer conv1a
I0622 11:18:10.883976 17776 net.cpp:406] conv1a <- data
I0622 11:18:10.883980 17776 net.cpp:380] conv1a -> conv1a
I0622 11:18:10.884910 17776 net.cpp:122] Setting up conv1a
I0622 11:18:10.884917 17776 net.cpp:129] Top shape: 1 32 96 304 (933888)
I0622 11:18:10.884918 17776 net.cpp:137] Memory required for data: 4085760
I0622 11:18:10.884925 17776 layer_factory.hpp:77] Creating layer relu1a
I0622 11:18:10.884930 17776 net.cpp:84] Creating Layer relu1a
I0622 11:18:10.884932 17776 net.cpp:406] relu1a <- conv1a
I0622 11:18:10.884934 17776 net.cpp:367] relu1a -> conv1a (in-place)
I0622 11:18:10.884938 17776 net.cpp:122] Setting up relu1a
I0622 11:18:10.884940 17776 net.cpp:129] Top shape: 1 32 96 304 (933888)
I0622 11:18:10.884941 17776 net.cpp:137] Memory required for data: 7821312
I0622 11:18:10.884943 17776 layer_factory.hpp:77] Creating layer conv1b
I0622 11:18:10.884948 17776 net.cpp:84] Creating Layer conv1b
I0622 11:18:10.884949 17776 net.cpp:406] conv1b <- conv1a
I0622 11:18:10.884951 17776 net.cpp:380] conv1b -> conv1b
I0622 11:18:10.885350 17776 net.cpp:122] Setting up conv1b
I0622 11:18:10.885357 17776 net.cpp:129] Top shape: 1 32 96 304 (933888)
I0622 11:18:10.885359 17776 net.cpp:137] Memory required for data: 11556864
I0622 11:18:10.885362 17776 layer_factory.hpp:77] Creating layer relu1b
I0622 11:18:10.885366 17776 net.cpp:84] Creating Layer relu1b
I0622 11:18:10.885368 17776 net.cpp:406] relu1b <- conv1b
I0622 11:18:10.885370 17776 net.cpp:367] relu1b -> conv1b (in-place)
I0622 11:18:10.885373 17776 net.cpp:122] Setting up relu1b
I0622 11:18:10.885375 17776 net.cpp:129] Top shape: 1 32 96 304 (933888)
I0622 11:18:10.885376 17776 net.cpp:137] Memory required for data: 15292416
I0622 11:18:10.885378 17776 layer_factory.hpp:77] Creating layer conv1c
I0622 11:18:10.885381 17776 net.cpp:84] Creating Layer conv1c
I0622 11:18:10.885383 17776 net.cpp:406] conv1c <- conv1b
I0622 11:18:10.885386 17776 net.cpp:380] conv1c -> conv1co
I0622 11:18:10.885537 17776 net.cpp:122] Setting up conv1c
I0622 11:18:10.885541 17776 net.cpp:129] Top shape: 1 32 96 304 (933888)
I0622 11:18:10.885543 17776 net.cpp:137] Memory required for data: 19027968
I0622 11:18:10.885547 17776 layer_factory.hpp:77] Creating layer conv1co_conv1c_0_split
I0622 11:18:10.885550 17776 net.cpp:84] Creating Layer conv1co_conv1c_0_split
I0622 11:18:10.885551 17776 net.cpp:406] conv1co_conv1c_0_split <- conv1co
I0622 11:18:10.885553 17776 net.cpp:380] conv1co_conv1c_0_split -> conv1co_conv1c_0_split_0
I0622 11:18:10.885557 17776 net.cpp:380] conv1co_conv1c_0_split -> conv1co_conv1c_0_split_1
I0622 11:18:10.885574 17776 net.cpp:122] Setting up conv1co_conv1c_0_split
I0622 11:18:10.885576 17776 net.cpp:129] Top shape: 1 32 96 304 (933888)
I0622 11:18:10.885578 17776 net.cpp:129] Top shape: 1 32 96 304 (933888)
I0622 11:18:10.885579 17776 net.cpp:137] Memory required for data: 26499072
I0622 11:18:10.885581 17776 layer_factory.hpp:77] Creating layer relu1c
I0622 11:18:10.885583 17776 net.cpp:84] Creating Layer relu1c
I0622 11:18:10.885586 17776 net.cpp:406] relu1c <- conv1co_conv1c_0_split_0
I0622 11:18:10.885587 17776 net.cpp:380] relu1c -> conv1c
I0622 11:18:10.885599 17776 net.cpp:122] Setting up relu1c
I0622 11:18:10.885602 17776 net.cpp:129] Top shape: 1 32 96 304 (933888)
I0622 11:18:10.885603 17776 net.cpp:137] Memory required for data: 30234624
I0622 11:18:10.885604 17776 layer_factory.hpp:77] Creating layer pool1
I0622 11:18:10.885608 17776 net.cpp:84] Creating Layer pool1
I0622 11:18:10.885610 17776 net.cpp:406] pool1 <- conv1c
I0622 11:18:10.885612 17776 net.cpp:380] pool1 -> pool1
I0622 11:18:10.885623 17776 net.cpp:122] Setting up pool1
I0622 11:18:10.885627 17776 net.cpp:129] Top shape: 1 32 48 152 (233472)
I0622 11:18:10.885627 17776 net.cpp:137] Memory required for data: 31168512
I0622 11:18:10.885628 17776 layer_factory.hpp:77] Creating layer conv2a
I0622 11:18:10.885632 17776 net.cpp:84] Creating Layer conv2a
I0622 11:18:10.885634 17776 net.cpp:406] conv2a <- pool1
I0622 11:18:10.885637 17776 net.cpp:380] conv2a -> conv2a
I0622 11:18:10.885782 17776 net.cpp:122] Setting up conv2a
I0622 11:18:10.885787 17776 net.cpp:129] Top shape: 1 32 48 152 (233472)
I0622 11:18:10.885787 17776 net.cpp:137] Memory required for data: 32102400
I0622 11:18:10.885790 17776 layer_factory.hpp:77] Creating layer relu2a
I0622 11:18:10.885792 17776 net.cpp:84] Creating Layer relu2a
I0622 11:18:10.885794 17776 net.cpp:406] relu2a <- conv2a
I0622 11:18:10.885797 17776 net.cpp:367] relu2a -> conv2a (in-place)
I0622 11:18:10.885799 17776 net.cpp:122] Setting up relu2a
I0622 11:18:10.885800 17776 net.cpp:129] Top shape: 1 32 48 152 (233472)
I0622 11:18:10.885802 17776 net.cpp:137] Memory required for data: 33036288
I0622 11:18:10.885803 17776 layer_factory.hpp:77] Creating layer conv2b
I0622 11:18:10.885807 17776 net.cpp:84] Creating Layer conv2b
I0622 11:18:10.885808 17776 net.cpp:406] conv2b <- conv2a
I0622 11:18:10.885810 17776 net.cpp:380] conv2b -> conv2bo
I0622 11:18:10.885957 17776 net.cpp:122] Setting up conv2b
I0622 11:18:10.885959 17776 net.cpp:129] Top shape: 1 32 48 152 (233472)
I0622 11:18:10.885960 17776 net.cpp:137] Memory required for data: 33970176
I0622 11:18:10.885964 17776 layer_factory.hpp:77] Creating layer conv2bo_conv2b_0_split
I0622 11:18:10.885967 17776 net.cpp:84] Creating Layer conv2bo_conv2b_0_split
I0622 11:18:10.885968 17776 net.cpp:406] conv2bo_conv2b_0_split <- conv2bo
I0622 11:18:10.885972 17776 net.cpp:380] conv2bo_conv2b_0_split -> conv2bo_conv2b_0_split_0
I0622 11:18:10.885974 17776 net.cpp:380] conv2bo_conv2b_0_split -> conv2bo_conv2b_0_split_1
I0622 11:18:10.885990 17776 net.cpp:122] Setting up conv2bo_conv2b_0_split
I0622 11:18:10.885993 17776 net.cpp:129] Top shape: 1 32 48 152 (233472)
I0622 11:18:10.885994 17776 net.cpp:129] Top shape: 1 32 48 152 (233472)
I0622 11:18:10.885996 17776 net.cpp:137] Memory required for data: 35837952
I0622 11:18:10.885998 17776 layer_factory.hpp:77] Creating layer relu2b
I0622 11:18:10.885999 17776 net.cpp:84] Creating Layer relu2b
I0622 11:18:10.886001 17776 net.cpp:406] relu2b <- conv2bo_conv2b_0_split_0
I0622 11:18:10.886004 17776 net.cpp:380] relu2b -> conv2b
I0622 11:18:10.886014 17776 net.cpp:122] Setting up relu2b
I0622 11:18:10.886018 17776 net.cpp:129] Top shape: 1 32 48 152 (233472)
I0622 11:18:10.886018 17776 net.cpp:137] Memory required for data: 36771840
I0622 11:18:10.886020 17776 layer_factory.hpp:77] Creating layer pool2
I0622 11:18:10.886023 17776 net.cpp:84] Creating Layer pool2
I0622 11:18:10.886023 17776 net.cpp:406] pool2 <- conv2b
I0622 11:18:10.886026 17776 net.cpp:380] pool2 -> pool2
I0622 11:18:10.886036 17776 net.cpp:122] Setting up pool2
I0622 11:18:10.886039 17776 net.cpp:129] Top shape: 1 32 24 76 (58368)
I0622 11:18:10.886039 17776 net.cpp:137] Memory required for data: 37005312
I0622 11:18:10.886040 17776 layer_factory.hpp:77] Creating layer conv3a
I0622 11:18:10.886044 17776 net.cpp:84] Creating Layer conv3a
I0622 11:18:10.886045 17776 net.cpp:406] conv3a <- pool2
I0622 11:18:10.886049 17776 net.cpp:380] conv3a -> conv3ao
I0622 11:18:10.886438 17776 net.cpp:122] Setting up conv3a
I0622 11:18:10.886445 17776 net.cpp:129] Top shape: 1 32 24 76 (58368)
I0622 11:18:10.886446 17776 net.cpp:137] Memory required for data: 37238784
I0622 11:18:10.886449 17776 layer_factory.hpp:77] Creating layer conv3ao_conv3a_0_split
I0622 11:18:10.886453 17776 net.cpp:84] Creating Layer conv3ao_conv3a_0_split
I0622 11:18:10.886456 17776 net.cpp:406] conv3ao_conv3a_0_split <- conv3ao
I0622 11:18:10.886458 17776 net.cpp:380] conv3ao_conv3a_0_split -> conv3ao_conv3a_0_split_0
I0622 11:18:10.886461 17776 net.cpp:380] conv3ao_conv3a_0_split -> conv3ao_conv3a_0_split_1
I0622 11:18:10.886479 17776 net.cpp:122] Setting up conv3ao_conv3a_0_split
I0622 11:18:10.886483 17776 net.cpp:129] Top shape: 1 32 24 76 (58368)
I0622 11:18:10.886485 17776 net.cpp:129] Top shape: 1 32 24 76 (58368)
I0622 11:18:10.886487 17776 net.cpp:137] Memory required for data: 37705728
I0622 11:18:10.886487 17776 layer_factory.hpp:77] Creating layer relu3a
I0622 11:18:10.886490 17776 net.cpp:84] Creating Layer relu3a
I0622 11:18:10.886492 17776 net.cpp:406] relu3a <- conv3ao_conv3a_0_split_0
I0622 11:18:10.886494 17776 net.cpp:380] relu3a -> conv3a
I0622 11:18:10.886503 17776 net.cpp:122] Setting up relu3a
I0622 11:18:10.886507 17776 net.cpp:129] Top shape: 1 32 24 76 (58368)
I0622 11:18:10.886507 17776 net.cpp:137] Memory required for data: 37939200
I0622 11:18:10.886508 17776 layer_factory.hpp:77] Creating layer pool3
I0622 11:18:10.886512 17776 net.cpp:84] Creating Layer pool3
I0622 11:18:10.886512 17776 net.cpp:406] pool3 <- conv3a
I0622 11:18:10.886514 17776 net.cpp:380] pool3 -> pool3
I0622 11:18:10.886524 17776 net.cpp:122] Setting up pool3
I0622 11:18:10.886526 17776 net.cpp:129] Top shape: 1 32 12 38 (14592)
I0622 11:18:10.886528 17776 net.cpp:137] Memory required for data: 37997568
I0622 11:18:10.886529 17776 layer_factory.hpp:77] Creating layer deconv4
I0622 11:18:10.886533 17776 net.cpp:84] Creating Layer deconv4
I0622 11:18:10.886534 17776 net.cpp:406] deconv4 <- pool3
I0622 11:18:10.886536 17776 net.cpp:380] deconv4 -> deconv4
I0622 11:18:10.886709 17776 net.cpp:122] Setting up deconv4
I0622 11:18:10.886713 17776 net.cpp:129] Top shape: 1 32 24 76 (58368)
I0622 11:18:10.886714 17776 net.cpp:137] Memory required for data: 38231040
I0622 11:18:10.886718 17776 layer_factory.hpp:77] Creating layer concat4
I0622 11:18:10.886720 17776 net.cpp:84] Creating Layer concat4
I0622 11:18:10.886723 17776 net.cpp:406] concat4 <- conv3ao_conv3a_0_split_1
I0622 11:18:10.886724 17776 net.cpp:406] concat4 <- deconv4
I0622 11:18:10.886726 17776 net.cpp:380] concat4 -> deconv4ao
I0622 11:18:10.886739 17776 net.cpp:122] Setting up concat4
I0622 11:18:10.886741 17776 net.cpp:129] Top shape: 1 64 24 76 (116736)
I0622 11:18:10.886742 17776 net.cpp:137] Memory required for data: 38697984
I0622 11:18:10.886744 17776 layer_factory.hpp:77] Creating layer relu4
I0622 11:18:10.886746 17776 net.cpp:84] Creating Layer relu4
I0622 11:18:10.886749 17776 net.cpp:406] relu4 <- deconv4ao
I0622 11:18:10.886750 17776 net.cpp:380] relu4 -> deconv4r
I0622 11:18:10.886760 17776 net.cpp:122] Setting up relu4
I0622 11:18:10.886764 17776 net.cpp:129] Top shape: 1 64 24 76 (116736)
I0622 11:18:10.886765 17776 net.cpp:137] Memory required for data: 39164928
I0622 11:18:10.886765 17776 layer_factory.hpp:77] Creating layer deconv5
I0622 11:18:10.886768 17776 net.cpp:84] Creating Layer deconv5
I0622 11:18:10.886770 17776 net.cpp:406] deconv5 <- deconv4r
I0622 11:18:10.886772 17776 net.cpp:380] deconv5 -> deconv5
I0622 11:18:10.887006 17776 net.cpp:122] Setting up deconv5
I0622 11:18:10.887009 17776 net.cpp:129] Top shape: 1 32 48 152 (233472)
I0622 11:18:10.887012 17776 net.cpp:137] Memory required for data: 40098816
I0622 11:18:10.887013 17776 layer_factory.hpp:77] Creating layer concat5
I0622 11:18:10.887017 17776 net.cpp:84] Creating Layer concat5
I0622 11:18:10.887019 17776 net.cpp:406] concat5 <- conv2bo_conv2b_0_split_1
I0622 11:18:10.887022 17776 net.cpp:406] concat5 <- deconv5
I0622 11:18:10.887024 17776 net.cpp:380] concat5 -> deconv5ao
I0622 11:18:10.887034 17776 net.cpp:122] Setting up concat5
I0622 11:18:10.887038 17776 net.cpp:129] Top shape: 1 64 48 152 (466944)
I0622 11:18:10.887039 17776 net.cpp:137] Memory required for data: 41966592
I0622 11:18:10.887040 17776 layer_factory.hpp:77] Creating layer relu5
I0622 11:18:10.887042 17776 net.cpp:84] Creating Layer relu5
I0622 11:18:10.887044 17776 net.cpp:406] relu5 <- deconv5ao
I0622 11:18:10.887046 17776 net.cpp:380] relu5 -> score
I0622 11:18:10.887056 17776 net.cpp:122] Setting up relu5
I0622 11:18:10.887059 17776 net.cpp:129] Top shape: 1 64 48 152 (466944)
I0622 11:18:10.887061 17776 net.cpp:137] Memory required for data: 43834368
I0622 11:18:10.887063 17776 layer_factory.hpp:77] Creating layer deconv6
I0622 11:18:10.887065 17776 net.cpp:84] Creating Layer deconv6
I0622 11:18:10.887066 17776 net.cpp:406] deconv6 <- score
I0622 11:18:10.887069 17776 net.cpp:380] deconv6 -> deconv6
I0622 11:18:10.887308 17776 net.cpp:122] Setting up deconv6
I0622 11:18:10.887312 17776 net.cpp:129] Top shape: 1 32 96 304 (933888)
I0622 11:18:10.887313 17776 net.cpp:137] Memory required for data: 47569920
I0622 11:18:10.887318 17776 layer_factory.hpp:77] Creating layer concat5
I0622 11:18:10.887321 17776 net.cpp:84] Creating Layer concat5
I0622 11:18:10.887322 17776 net.cpp:406] concat5 <- conv1co_conv1c_0_split_1
I0622 11:18:10.887325 17776 net.cpp:406] concat5 <- deconv6
I0622 11:18:10.887327 17776 net.cpp:380] concat5 -> deconv6ao
I0622 11:18:10.887338 17776 net.cpp:122] Setting up concat5
I0622 11:18:10.887341 17776 net.cpp:129] Top shape: 1 64 96 304 (1867776)
I0622 11:18:10.887342 17776 net.cpp:137] Memory required for data: 55041024
I0622 11:18:10.887344 17776 layer_factory.hpp:77] Creating layer relu6
I0622 11:18:10.887346 17776 net.cpp:84] Creating Layer relu6
I0622 11:18:10.887348 17776 net.cpp:406] relu6 <- deconv6ao
I0622 11:18:10.887351 17776 net.cpp:380] relu6 -> deconv6r
I0622 11:18:10.887361 17776 net.cpp:122] Setting up relu6
I0622 11:18:10.887363 17776 net.cpp:129] Top shape: 1 64 96 304 (1867776)
I0622 11:18:10.887364 17776 net.cpp:137] Memory required for data: 62512128
I0622 11:18:10.887365 17776 layer_factory.hpp:77] Creating layer convX
I0622 11:18:10.887369 17776 net.cpp:84] Creating Layer convX
I0622 11:18:10.887372 17776 net.cpp:406] convX <- deconv6r
I0622 11:18:10.887374 17776 net.cpp:380] convX -> score-final
I0622 11:18:10.887501 17776 net.cpp:122] Setting up convX
I0622 11:18:10.887504 17776 net.cpp:129] Top shape: 1 2 96 304 (58368)
I0622 11:18:10.887506 17776 net.cpp:137] Memory required for data: 62745600
I0622 11:18:10.887508 17776 layer_factory.hpp:77] Creating layer loss
I0622 11:18:10.887512 17776 net.cpp:84] Creating Layer loss
I0622 11:18:10.887513 17776 net.cpp:406] loss <- score-final
I0622 11:18:10.887516 17776 net.cpp:406] loss <- label
I0622 11:18:10.887517 17776 net.cpp:406] loss <- weight
I0622 11:18:10.887521 17776 net.cpp:380] loss -> loss
…
I0622 11:23:28.340562 17776 upgrade_proto.cpp:67] Attempting to upgrade input file specified using deprecated input fields: /home/atemmar/Documents/Data/FromFirasPng//models/U-net/unet_deploy.prototxt
I0622 11:23:28.340569 17776 upgrade_proto.cpp:70] Successfully upgraded file specified using deprecated input fields.
W0622 11:23:28.340570 17776 upgrade_proto.cpp:72] Note that future Caffe releases will only support input layers and not input fields.
I0622 11:23:28.340687 17776 net.cpp:51] Initializing net from parameters: 
name: "unet"
state {
  phase: TEST
  level: 0
}
layer {
  name: "input"
  type: "Input"
  top: "data"
  input_param {
    shape {
      dim: 1
      dim: 1
      dim: 96
      dim: 304
    }
  }
}
layer {
  name: "conv1a"
  type: "Convolution"
  bottom: "data"
  top: "conv1a"
  param {
    lr_mult: 1
  }
  param {
    lr_mult: 2
  }
  convolution_param {
    num_output: 32
    pad: 1
    kernel_size: 3
    stride: 1
    weight_filler {
      type: "xavier"
    }
    bias_filler {
      type: "constant"
      value: 0
    }
    engine: CAFFE
  }
}
layer {
  name: "relu1a"
  type: "ReLU"
  bottom: "conv1a"
  top: "conv1a"
  relu_param {
    engine: CAFFE
  }
}
layer {
  name: "conv1b"
  type: "Convolution"
  bottom: "conv1a"
  top: "conv1b"
  param {
    lr_mult: 1
  }
  param {
    lr_mult: 2
  }
  convolution_param {
    num_output: 32
    pad: 1
    kernel_size: 3
    stride: 1
    weight_filler {
      type: "xavier"
    }
    bias_filler {
      type: "constant"
      value: 0
    }
    engine: CAFFE
  }
}
layer {
  name: "relu1b"
  type: "ReLU"
  bottom: "conv1b"
  top: "conv1b"
  relu_param {
    engine: CAFFE
  }
}
layer {
  name: "conv1c"
  type: "Convolution"
  bottom: "conv1b"
  top: "conv1co"
  param {
    lr_mult: 1
  }
  param {
    lr_mult: 2
  }
  convolution_param {
    num_output: 32
    pad: 1
    kernel_size: 3
    stride: 1
    weight_filler {
      type: "xavier"
    }
    bias_filler {
      type: "constant"
      value: 0
    }
    engine: CAFFE
  }
}
layer {
  name: "relu1c"
  type: "ReLU"
  bottom: "conv1co"
  top: "conv1c"
  relu_param {
    engine: CAFFE
  }
}
layer {
  name: "pool1"
  type: "Pooling"
  bottom: "conv1c"
  top: "pool1"
  pooling_param {
    pool: AVE
    kernel_size: 3
    stride: 2
    engine: CAFFE
  }
}
layer {
  name: "conv2a"
  type: "Convolution"
  bottom: "pool1"
  top: "conv2a"
  param {
    lr_mult: 1
  }
  param {
    lr_mult: 2
  }
  convolution_param {
    num_output: 32
    pad: 1
    kernel_size: 3
    stride: 1
    weight_filler {
      type: "xavier"
    }
    bias_filler {
      type: "constant"
      value: 0
    }
    engine: CAFFE
  }
}
layer {
  name: "relu2a"
  type: "ReLU"
  bottom: "conv2a"
  top: "conv2a"
  relu_param {
    engine: CAFFE
  }
}
layer {
  name: "conv2b"
  type: "Convolution"
  bottom: "conv2a"
  top: "conv2bo"
  param {
    lr_mult: 1
  }
  param {
    lr_mult: 2
  }
  convolution_param {
    num_output: 32
    pad: 1
    kernel_size: 3
    stride: 1
    weight_filler {
      type: "xavier"
    }
    bias_filler {
      type: "constant"
      value: 0
    }
    engine: CAFFE
  }
}
layer {
  name: "relu2b"
  type: "ReLU"
  bottom: "conv2bo"
  top: "conv2b"
  relu_param {
    engine: CAFFE
  }
}
layer {
  name: "pool2"
  type: "Pooling"
  bottom: "conv2b"
  top: "pool2"
  pooling_param {
    pool: AVE
    kernel_size: 3
    stride: 2
    engine: CAFFE
  }
}
layer {
  name: "conv3a"
  type: "Convolution"
  bottom: "pool2"
  top: "conv3ao"
  param {
    lr_mult: 1
  }
  param {
    lr_mult: 2
  }
  convolution_param {
    num_output: 32
    pad: 1
    kernel_size: 3
    stride: 1
    weight_filler {
      type: "xavier"
    }
    bias_filler {
      type: "constant"
      value: 0
    }
    engine: CAFFE
  }
}
layer {
  name: "relu3a"
  type: "ReLU"
  bottom: "conv3ao"
  top: "conv3a"
  relu_param {
    engine: CAFFE
  }
}
layer {
  name: "pool3"
  type: "Pooling"
  bottom: "conv3a"
  top: "pool3"
  pooling_param {
    pool: AVE
    kernel_size: 3
    stride: 2
    engine: CAFFE
  }
}
layer {
  name: "deconv4"
  type: "Deconvolution"
  bottom: "pool3"
  top: "deconv4"
  param {
    lr_mult: 1
  }
  param {
    lr_mult: 2
  }
  convolution_param {
    num_output: 32
    pad: 1
    kernel_size: 4
    stride: 2
    weight_filler {
      type: "xavier"
    }
    engine: CAFFE
  }
}
layer {
  name: "concat4"
  type: "Concat"
  bottom: "conv3ao"
  bottom: "deconv4"
  top: "deconv4ao"
}
layer {
  name: "relu4"
  type: "ReLU"
  bottom: "deconv4ao"
  top: "deconv4r"
  relu_param {
    engine: CAFFE
  }
}
layer {
  name: "deconv5"
  type: "Deconvolution"
  bottom: "deconv4r"
  top: "deconv5"
  param {
    lr_mult: 1
  }
  param {
    lr_mult: 2
  }
  convolution_param {
    num_output: 32
    pad: 1
    kernel_size: 4
    stride: 2
    weight_filler {
      type: "xavier"
    }
    engine: CAFFE
  }
}
layer {
  name: "concat5"
  type: "Concat"
  bottom: "conv2bo"
  bottom: "deconv5"
  top: "deconv5ao"
  concat_param {
    concat_dim: 1
  }
}
layer {
  name: "relu5"
  type: "ReLU"
  bottom: "deconv5ao"
  top: "score"
  relu_param {
    engine: CAFFE
  }
}
layer {
  name: "deconv6"
  type: "Deconvolution"
  bottom: "score"
  top: "deconv6"
  param {
    lr_mult: 1
  }
  param {
    lr_mult: 2
  }
  convolution_param {
    num_output: 32
    pad: 1
    kernel_size: 4
    stride: 2
    weight_filler {
      type: "xavier"
    }
    engine: CAFFE
  }
}
layer {
  name: "concat5"
  type: "Concat"
  bottom: "conv1co"
  bottom: "deconv6"
  top: "deconv6ao"
}
layer {
  name: "relu6"
  type: "ReLU"
  bottom: "deconv6ao"
  top: "deconv6r"
  relu_param {
    engine: CAFFE
  }
}
layer {
  name: "convX"
  type: "Convolution"
  bottom: "deconv6r"
  top: "score-final"
  param {
    lr_mult: 1
  }
  param {
    lr_mult: 2
  }
  convolution_param {
    num_output: 2
    pad: 1
    kernel_size: 3
    stride: 1
    weight_filler {
      type: "xavier"
    }
    bias_filler {
      type: "constant"
      value: 0
    }
    engine: CAFFE
  }
}
I0622 11:23:28.340754 17776 layer_factory.hpp:77] Creating layer input
I0622 11:23:28.340759 17776 net.cpp:84] Creating Layer input
I0622 11:23:28.340761 17776 net.cpp:380] input -> data
I0622 11:23:28.341038 17776 net.cpp:122] Setting up input
I0622 11:23:28.341044 17776 net.cpp:129] Top shape: 1 1 96 304 (29184)
I0622 11:23:28.341047 17776 net.cpp:137] Memory required for data: 116736
I0622 11:23:28.341048 17776 layer_factory.hpp:77] Creating layer conv1a
I0622 11:23:28.341054 17776 net.cpp:84] Creating Layer conv1a
I0622 11:23:28.341056 17776 net.cpp:406] conv1a <- data
I0622 11:23:28.341059 17776 net.cpp:380] conv1a -> conv1a
I0622 11:23:28.341684 17776 net.cpp:122] Setting up conv1a
I0622 11:23:28.341691 17776 net.cpp:129] Top shape: 1 32 96 304 (933888)
I0622 11:23:28.341692 17776 net.cpp:137] Memory required for data: 3852288
I0622 11:23:28.341698 17776 layer_factory.hpp:77] Creating layer relu1a
I0622 11:23:28.341703 17776 net.cpp:84] Creating Layer relu1a
I0622 11:23:28.341706 17776 net.cpp:406] relu1a <- conv1a
I0622 11:23:28.341707 17776 net.cpp:367] relu1a -> conv1a (in-place)
I0622 11:23:28.341711 17776 net.cpp:122] Setting up relu1a
I0622 11:23:28.341714 17776 net.cpp:129] Top shape: 1 32 96 304 (933888)
I0622 11:23:28.341716 17776 net.cpp:137] Memory required for data: 7587840
I0622 11:23:28.341717 17776 layer_factory.hpp:77] Creating layer conv1b
I0622 11:23:28.341722 17776 net.cpp:84] Creating Layer conv1b
I0622 11:23:28.341722 17776 net.cpp:406] conv1b <- conv1a
I0622 11:23:28.341725 17776 net.cpp:380] conv1b -> conv1b
I0622 11:23:28.342129 17776 net.cpp:122] Setting up conv1b
I0622 11:23:28.342134 17776 net.cpp:129] Top shape: 1 32 96 304 (933888)
I0622 11:23:28.342136 17776 net.cpp:137] Memory required for data: 11323392
I0622 11:23:28.342140 17776 layer_factory.hpp:77] Creating layer relu1b
I0622 11:23:28.342145 17776 net.cpp:84] Creating Layer relu1b
I0622 11:23:28.342146 17776 net.cpp:406] relu1b <- conv1b
I0622 11:23:28.342149 17776 net.cpp:367] relu1b -> conv1b (in-place)
I0622 11:23:28.342152 17776 net.cpp:122] Setting up relu1b
I0622 11:23:28.342154 17776 net.cpp:129] Top shape: 1 32 96 304 (933888)
I0622 11:23:28.342155 17776 net.cpp:137] Memory required for data: 15058944
I0622 11:23:28.342157 17776 layer_factory.hpp:77] Creating layer conv1c
I0622 11:23:28.342161 17776 net.cpp:84] Creating Layer conv1c
I0622 11:23:28.342164 17776 net.cpp:406] conv1c <- conv1b
I0622 11:23:28.342166 17776 net.cpp:380] conv1c -> conv1co
I0622 11:23:28.342324 17776 net.cpp:122] Setting up conv1c
I0622 11:23:28.342329 17776 net.cpp:129] Top shape: 1 32 96 304 (933888)
I0622 11:23:28.342329 17776 net.cpp:137] Memory required for data: 18794496
I0622 11:23:28.342334 17776 layer_factory.hpp:77] Creating layer conv1co_conv1c_0_split
I0622 11:23:28.342336 17776 net.cpp:84] Creating Layer conv1co_conv1c_0_split
I0622 11:23:28.342337 17776 net.cpp:406] conv1co_conv1c_0_split <- conv1co
I0622 11:23:28.342340 17776 net.cpp:380] conv1co_conv1c_0_split -> conv1co_conv1c_0_split_0
I0622 11:23:28.342344 17776 net.cpp:380] conv1co_conv1c_0_split -> conv1co_conv1c_0_split_1
I0622 11:23:28.342361 17776 net.cpp:122] Setting up conv1co_conv1c_0_split
I0622 11:23:28.342365 17776 net.cpp:129] Top shape: 1 32 96 304 (933888)
I0622 11:23:28.342366 17776 net.cpp:129] Top shape: 1 32 96 304 (933888)
I0622 11:23:28.342367 17776 net.cpp:137] Memory required for data: 26265600
I0622 11:23:28.342370 17776 layer_factory.hpp:77] Creating layer relu1c
I0622 11:23:28.342371 17776 net.cpp:84] Creating Layer relu1c
I0622 11:23:28.342372 17776 net.cpp:406] relu1c <- conv1co_conv1c_0_split_0
I0622 11:23:28.342375 17776 net.cpp:380] relu1c -> conv1c
I0622 11:23:28.342384 17776 net.cpp:122] Setting up relu1c
I0622 11:23:28.342387 17776 net.cpp:129] Top shape: 1 32 96 304 (933888)
I0622 11:23:28.342389 17776 net.cpp:137] Memory required for data: 30001152
I0622 11:23:28.342391 17776 layer_factory.hpp:77] Creating layer pool1
I0622 11:23:28.342394 17776 net.cpp:84] Creating Layer pool1
I0622 11:23:28.342396 17776 net.cpp:406] pool1 <- conv1c
I0622 11:23:28.342398 17776 net.cpp:380] pool1 -> pool1
I0622 11:23:28.342408 17776 net.cpp:122] Setting up pool1
I0622 11:23:28.342412 17776 net.cpp:129] Top shape: 1 32 48 152 (233472)
I0622 11:23:28.342413 17776 net.cpp:137] Memory required for data: 30935040
I0622 11:23:28.342414 17776 layer_factory.hpp:77] Creating layer conv2a
I0622 11:23:28.342418 17776 net.cpp:84] Creating Layer conv2a
I0622 11:23:28.342420 17776 net.cpp:406] conv2a <- pool1
I0622 11:23:28.342423 17776 net.cpp:380] conv2a -> conv2a
I0622 11:23:28.342568 17776 net.cpp:122] Setting up conv2a
I0622 11:23:28.342572 17776 net.cpp:129] Top shape: 1 32 48 152 (233472)
I0622 11:23:28.342573 17776 net.cpp:137] Memory required for data: 31868928
I0622 11:23:28.342576 17776 layer_factory.hpp:77] Creating layer relu2a
I0622 11:23:28.342578 17776 net.cpp:84] Creating Layer relu2a
I0622 11:23:28.342579 17776 net.cpp:406] relu2a <- conv2a
I0622 11:23:28.342582 17776 net.cpp:367] relu2a -> conv2a (in-place)
I0622 11:23:28.342586 17776 net.cpp:122] Setting up relu2a
I0622 11:23:28.342586 17776 net.cpp:129] Top shape: 1 32 48 152 (233472)
I0622 11:23:28.342588 17776 net.cpp:137] Memory required for data: 32802816
I0622 11:23:28.342589 17776 layer_factory.hpp:77] Creating layer conv2b
I0622 11:23:28.342593 17776 net.cpp:84] Creating Layer conv2b
I0622 11:23:28.342594 17776 net.cpp:406] conv2b <- conv2a
I0622 11:23:28.342597 17776 net.cpp:380] conv2b -> conv2bo
I0622 11:23:28.342744 17776 net.cpp:122] Setting up conv2b
I0622 11:23:28.342747 17776 net.cpp:129] Top shape: 1 32 48 152 (233472)
I0622 11:23:28.342749 17776 net.cpp:137] Memory required for data: 33736704
I0622 11:23:28.342752 17776 layer_factory.hpp:77] Creating layer conv2bo_conv2b_0_split
I0622 11:23:28.342756 17776 net.cpp:84] Creating Layer conv2bo_conv2b_0_split
I0622 11:23:28.342757 17776 net.cpp:406] conv2bo_conv2b_0_split <- conv2bo
I0622 11:23:28.342761 17776 net.cpp:380] conv2bo_conv2b_0_split -> conv2bo_conv2b_0_split_0
I0622 11:23:28.342763 17776 net.cpp:380] conv2bo_conv2b_0_split -> conv2bo_conv2b_0_split_1
I0622 11:23:28.342780 17776 net.cpp:122] Setting up conv2bo_conv2b_0_split
I0622 11:23:28.342783 17776 net.cpp:129] Top shape: 1 32 48 152 (233472)
I0622 11:23:28.342785 17776 net.cpp:129] Top shape: 1 32 48 152 (233472)
I0622 11:23:28.342787 17776 net.cpp:137] Memory required for data: 35604480
I0622 11:23:28.342788 17776 layer_factory.hpp:77] Creating layer relu2b
I0622 11:23:28.342790 17776 net.cpp:84] Creating Layer relu2b
I0622 11:23:28.342792 17776 net.cpp:406] relu2b <- conv2bo_conv2b_0_split_0
I0622 11:23:28.342794 17776 net.cpp:380] relu2b -> conv2b
I0622 11:23:28.342804 17776 net.cpp:122] Setting up relu2b
I0622 11:23:28.342808 17776 net.cpp:129] Top shape: 1 32 48 152 (233472)
I0622 11:23:28.342808 17776 net.cpp:137] Memory required for data: 36538368
I0622 11:23:28.342810 17776 layer_factory.hpp:77] Creating layer pool2
I0622 11:23:28.342813 17776 net.cpp:84] Creating Layer pool2
I0622 11:23:28.342814 17776 net.cpp:406] pool2 <- conv2b
I0622 11:23:28.342816 17776 net.cpp:380] pool2 -> pool2
I0622 11:23:28.342826 17776 net.cpp:122] Setting up pool2
I0622 11:23:28.342829 17776 net.cpp:129] Top shape: 1 32 24 76 (58368)
I0622 11:23:28.342830 17776 net.cpp:137] Memory required for data: 36771840
I0622 11:23:28.342831 17776 layer_factory.hpp:77] Creating layer conv3a
I0622 11:23:28.342835 17776 net.cpp:84] Creating Layer conv3a
I0622 11:23:28.342838 17776 net.cpp:406] conv3a <- pool2
I0622 11:23:28.342840 17776 net.cpp:380] conv3a -> conv3ao
I0622 11:23:28.343235 17776 net.cpp:122] Setting up conv3a
I0622 11:23:28.343240 17776 net.cpp:129] Top shape: 1 32 24 76 (58368)
I0622 11:23:28.343242 17776 net.cpp:137] Memory required for data: 37005312
I0622 11:23:28.343245 17776 layer_factory.hpp:77] Creating layer conv3ao_conv3a_0_split
I0622 11:23:28.343250 17776 net.cpp:84] Creating Layer conv3ao_conv3a_0_split
I0622 11:23:28.343251 17776 net.cpp:406] conv3ao_conv3a_0_split <- conv3ao
I0622 11:23:28.343255 17776 net.cpp:380] conv3ao_conv3a_0_split -> conv3ao_conv3a_0_split_0
I0622 11:23:28.343260 17776 net.cpp:380] conv3ao_conv3a_0_split -> conv3ao_conv3a_0_split_1
I0622 11:23:28.343279 17776 net.cpp:122] Setting up conv3ao_conv3a_0_split
I0622 11:23:28.343282 17776 net.cpp:129] Top shape: 1 32 24 76 (58368)
I0622 11:23:28.343284 17776 net.cpp:129] Top shape: 1 32 24 76 (58368)
I0622 11:23:28.343286 17776 net.cpp:137] Memory required for data: 37472256
I0622 11:23:28.343287 17776 layer_factory.hpp:77] Creating layer relu3a
I0622 11:23:28.343289 17776 net.cpp:84] Creating Layer relu3a
I0622 11:23:28.343291 17776 net.cpp:406] relu3a <- conv3ao_conv3a_0_split_0
I0622 11:23:28.343293 17776 net.cpp:380] relu3a -> conv3a
I0622 11:23:28.343304 17776 net.cpp:122] Setting up relu3a
I0622 11:23:28.343307 17776 net.cpp:129] Top shape: 1 32 24 76 (58368)
I0622 11:23:28.343308 17776 net.cpp:137] Memory required for data: 37705728
I0622 11:23:28.343309 17776 layer_factory.hpp:77] Creating layer pool3
I0622 11:23:28.343312 17776 net.cpp:84] Creating Layer pool3
I0622 11:23:28.343313 17776 net.cpp:406] pool3 <- conv3a
I0622 11:23:28.343317 17776 net.cpp:380] pool3 -> pool3
I0622 11:23:28.343327 17776 net.cpp:122] Setting up pool3
I0622 11:23:28.343329 17776 net.cpp:129] Top shape: 1 32 12 38 (14592)
I0622 11:23:28.343330 17776 net.cpp:137] Memory required for data: 37764096
I0622 11:23:28.343331 17776 layer_factory.hpp:77] Creating layer deconv4
I0622 11:23:28.343336 17776 net.cpp:84] Creating Layer deconv4
I0622 11:23:28.343338 17776 net.cpp:406] deconv4 <- pool3
I0622 11:23:28.343339 17776 net.cpp:380] deconv4 -> deconv4
I0622 11:23:28.343515 17776 net.cpp:122] Setting up deconv4
I0622 11:23:28.343518 17776 net.cpp:129] Top shape: 1 32 24 76 (58368)
I0622 11:23:28.343520 17776 net.cpp:137] Memory required for data: 37997568
I0622 11:23:28.343523 17776 layer_factory.hpp:77] Creating layer concat4
I0622 11:23:28.343526 17776 net.cpp:84] Creating Layer concat4
I0622 11:23:28.343528 17776 net.cpp:406] concat4 <- conv3ao_conv3a_0_split_1
I0622 11:23:28.343530 17776 net.cpp:406] concat4 <- deconv4
I0622 11:23:28.343533 17776 net.cpp:380] concat4 -> deconv4ao
I0622 11:23:28.343544 17776 net.cpp:122] Setting up concat4
I0622 11:23:28.343546 17776 net.cpp:129] Top shape: 1 64 24 76 (116736)
I0622 11:23:28.343549 17776 net.cpp:137] Memory required for data: 38464512
I0622 11:23:28.343549 17776 layer_factory.hpp:77] Creating layer relu4
I0622 11:23:28.343551 17776 net.cpp:84] Creating Layer relu4
I0622 11:23:28.343554 17776 net.cpp:406] relu4 <- deconv4ao
I0622 11:23:28.343555 17776 net.cpp:380] relu4 -> deconv4r
I0622 11:23:28.343565 17776 net.cpp:122] Setting up relu4
I0622 11:23:28.343569 17776 net.cpp:129] Top shape: 1 64 24 76 (116736)
I0622 11:23:28.343569 17776 net.cpp:137] Memory required for data: 38931456
I0622 11:23:28.343570 17776 layer_factory.hpp:77] Creating layer deconv5
I0622 11:23:28.343574 17776 net.cpp:84] Creating Layer deconv5
I0622 11:23:28.343575 17776 net.cpp:406] deconv5 <- deconv4r
I0622 11:23:28.343577 17776 net.cpp:380] deconv5 -> deconv5
I0622 11:23:28.343811 17776 net.cpp:122] Setting up deconv5
I0622 11:23:28.343814 17776 net.cpp:129] Top shape: 1 32 48 152 (233472)
I0622 11:23:28.343816 17776 net.cpp:137] Memory required for data: 39865344
I0622 11:23:28.343819 17776 layer_factory.hpp:77] Creating layer concat5
I0622 11:23:28.343822 17776 net.cpp:84] Creating Layer concat5
I0622 11:23:28.343823 17776 net.cpp:406] concat5 <- conv2bo_conv2b_0_split_1
I0622 11:23:28.343825 17776 net.cpp:406] concat5 <- deconv5
I0622 11:23:28.343828 17776 net.cpp:380] concat5 -> deconv5ao
I0622 11:23:28.343839 17776 net.cpp:122] Setting up concat5
I0622 11:23:28.343842 17776 net.cpp:129] Top shape: 1 64 48 152 (466944)
I0622 11:23:28.343843 17776 net.cpp:137] Memory required for data: 41733120
I0622 11:23:28.343845 17776 layer_factory.hpp:77] Creating layer relu5
I0622 11:23:28.343847 17776 net.cpp:84] Creating Layer relu5
I0622 11:23:28.343848 17776 net.cpp:406] relu5 <- deconv5ao
I0622 11:23:28.343852 17776 net.cpp:380] relu5 -> score
I0622 11:23:28.343860 17776 net.cpp:122] Setting up relu5
I0622 11:23:28.343863 17776 net.cpp:129] Top shape: 1 64 48 152 (466944)
I0622 11:23:28.343865 17776 net.cpp:137] Memory required for data: 43600896
I0622 11:23:28.343866 17776 layer_factory.hpp:77] Creating layer deconv6
I0622 11:23:28.343869 17776 net.cpp:84] Creating Layer deconv6
I0622 11:23:28.343870 17776 net.cpp:406] deconv6 <- score
I0622 11:23:28.343873 17776 net.cpp:380] deconv6 -> deconv6
I0622 11:23:28.344115 17776 net.cpp:122] Setting up deconv6
I0622 11:23:28.344120 17776 net.cpp:129] Top shape: 1 32 96 304 (933888)
I0622 11:23:28.344120 17776 net.cpp:137] Memory required for data: 47336448
I0622 11:23:28.344125 17776 layer_factory.hpp:77] Creating layer concat5
I0622 11:23:28.344128 17776 net.cpp:84] Creating Layer concat5
I0622 11:23:28.344130 17776 net.cpp:406] concat5 <- conv1co_conv1c_0_split_1
I0622 11:23:28.344131 17776 net.cpp:406] concat5 <- deconv6
I0622 11:23:28.344135 17776 net.cpp:380] concat5 -> deconv6ao
I0622 11:23:28.344146 17776 net.cpp:122] Setting up concat5
I0622 11:23:28.344148 17776 net.cpp:129] Top shape: 1 64 96 304 (1867776)
I0622 11:23:28.344149 17776 net.cpp:137] Memory required for data: 54807552
I0622 11:23:28.344151 17776 layer_factory.hpp:77] Creating layer relu6
I0622 11:23:28.344153 17776 net.cpp:84] Creating Layer relu6
I0622 11:23:28.344154 17776 net.cpp:406] relu6 <- deconv6ao
I0622 11:23:28.344156 17776 net.cpp:380] relu6 -> deconv6r
I0622 11:23:28.344166 17776 net.cpp:122] Setting up relu6
I0622 11:23:28.344169 17776 net.cpp:129] Top shape: 1 64 96 304 (1867776)
I0622 11:23:28.344172 17776 net.cpp:137] Memory required for data: 62278656
I0622 11:23:28.344172 17776 layer_factory.hpp:77] Creating layer convX
I0622 11:23:28.344177 17776 net.cpp:84] Creating Layer convX
I0622 11:23:28.344178 17776 net.cpp:406] convX <- deconv6r
I0622 11:23:28.344182 17776 net.cpp:380] convX -> score-final
I0622 11:23:28.344310 17776 net.cpp:122] Setting up convX
I0622 11:23:28.344313 17776 net.cpp:129] Top shape: 1 2 96 304 (58368)
I0622 11:23:28.344314 17776 net.cpp:137] Memory required for data: 62512128
I0622 11:23:28.344317 17776 net.cpp:200] convX does not need backward computation.
I0622 11:23:28.344319 17776 net.cpp:200] relu6 does not need backward computation.
I0622 11:23:28.344321 17776 net.cpp:200] concat5 does not need backward computation.
I0622 11:23:28.344322 17776 net.cpp:200] deconv6 does not need backward computation.
…
