…
I0622 09:35:40.278775 15936 net.cpp:294] The NetState phase (0) differed from the phase (1) specified by a rule in layer data
I0622 09:35:40.278873 15936 net.cpp:51] Initializing net from parameters: 
name: "unet"
state {
  phase: TRAIN
}
layer {
  name: "data"
  type: "Python"
  top: "data"
  top: "label"
  top: "weight"
  include {
    phase: TRAIN
  }
  python_param {
    module: "spine_layer"
    layer: "Spine_layer"
    param_str: "{\'seed\': 1337, \'inputLabelFiles\': \'/home/atemmar/Documents/Data/FromFirasPng//train_tmp.txt\', \'dir\':\'/home/atemmar/Documents/Data/FromFirasPng/\'}"
  }
}
layer {
  name: "conv1a"
  type: "Convolution"
  bottom: "data"
  top: "conv1a"
  param {
    lr_mult: 1
  }
  param {
    lr_mult: 2
  }
  convolution_param {
    num_output: 32
    pad: 1
    kernel_size: 3
    stride: 1
    weight_filler {
      type: "xavier"
    }
    bias_filler {
      type: "constant"
      value: 0
    }
    engine: CAFFE
  }
}
layer {
  name: "relu1a"
  type: "ReLU"
  bottom: "conv1a"
  top: "conv1a"
  relu_param {
    engine: CAFFE
  }
}
layer {
  name: "conv1b"
  type: "Convolution"
  bottom: "conv1a"
  top: "conv1b"
  param {
    lr_mult: 1
  }
  param {
    lr_mult: 2
  }
  convolution_param {
    num_output: 32
    pad: 1
    kernel_size: 3
    stride: 1
    weight_filler {
      type: "xavier"
    }
    bias_filler {
      type: "constant"
      value: 0
    }
    engine: CAFFE
  }
}
layer {
  name: "relu1b"
  type: "ReLU"
  bottom: "conv1b"
  top: "conv1b"
  relu_param {
    engine: CAFFE
  }
}
layer {
  name: "conv1c"
  type: "Convolution"
  bottom: "conv1b"
  top: "conv1co"
  param {
    lr_mult: 1
  }
  param {
    lr_mult: 2
  }
  convolution_param {
    num_output: 32
    pad: 1
    kernel_size: 3
    stride: 1
    weight_filler {
      type: "xavier"
    }
    bias_filler {
      type: "constant"
      value: 0
    }
    engine: CAFFE
  }
}
layer {
  name: "relu1c"
  type: "ReLU"
  bottom: "conv1co"
  top: "conv1c"
  relu_param {
    engine: CAFFE
  }
}
layer {
  name: "pool1"
  type: "Pooling"
  bottom: "conv1c"
  top: "pool1"
  pooling_param {
    pool: AVE
    kernel_size: 3
    stride: 2
    engine: CAFFE
  }
}
layer {
  name: "conv2a"
  type: "Convolution"
  bottom: "pool1"
  top: "conv2a"
  param {
    lr_mult: 1
  }
  param {
    lr_mult: 2
  }
  convolution_param {
    num_output: 32
    pad: 1
    kernel_size: 3
    stride: 1
    weight_filler {
      type: "xavier"
    }
    bias_filler {
      type: "constant"
      value: 0
    }
    engine: CAFFE
  }
}
layer {
  name: "relu2a"
  type: "ReLU"
  bottom: "conv2a"
  top: "conv2a"
  relu_param {
    engine: CAFFE
  }
}
layer {
  name: "conv2b"
  type: "Convolution"
  bottom: "conv2a"
  top: "conv2bo"
  param {
    lr_mult: 1
  }
  param {
    lr_mult: 2
  }
  convolution_param {
    num_output: 32
    pad: 1
    kernel_size: 3
    stride: 1
    weight_filler {
      type: "xavier"
    }
    bias_filler {
      type: "constant"
      value: 0
    }
    engine: CAFFE
  }
}
layer {
  name: "relu2b"
  type: "ReLU"
  bottom: "conv2bo"
  top: "conv2b"
  relu_param {
    engine: CAFFE
  }
}
layer {
  name: "pool2"
  type: "Pooling"
  bottom: "conv2b"
  top: "pool2"
  pooling_param {
    pool: AVE
    kernel_size: 3
    stride: 2
    engine: CAFFE
  }
}
layer {
  name: "conv3a"
  type: "Convolution"
  bottom: "pool2"
  top: "conv3ao"
  param {
    lr_mult: 1
  }
  param {
    lr_mult: 2
  }
  convolution_param {
    num_output: 32
    pad: 1
    kernel_size: 3
    stride: 1
    weight_filler {
      type: "xavier"
    }
    bias_filler {
      type: "constant"
      value: 0
    }
    engine: CAFFE
  }
}
layer {
  name: "relu3a"
  type: "ReLU"
  bottom: "conv3ao"
  top: "conv3a"
  relu_param {
    engine: CAFFE
  }
}
layer {
  name: "pool3"
  type: "Pooling"
  bottom: "conv3a"
  top: "pool3"
  pooling_param {
    pool: AVE
    kernel_size: 3
    stride: 2
    engine: CAFFE
  }
}
layer {
  name: "deconv4"
  type: "Deconvolution"
  bottom: "pool3"
  top: "deconv4"
  param {
    lr_mult: 1
  }
  param {
    lr_mult: 2
  }
  convolution_param {
    num_output: 32
    pad: 1
    kernel_size: 4
    stride: 2
    weight_filler {
      type: "xavier"
    }
    engine: CAFFE
  }
}
layer {
  name: "concat4"
  type: "Concat"
  bottom: "conv3ao"
  bottom: "deconv4"
  top: "deconv4ao"
}
layer {
  name: "relu4"
  type: "ReLU"
  bottom: "deconv4ao"
  top: "deconv4r"
  relu_param {
    engine: CAFFE
  }
}
layer {
  name: "deconv5"
  type: "Deconvolution"
  bottom: "deconv4r"
  top: "deconv5"
  param {
    lr_mult: 1
  }
  param {
    lr_mult: 2
  }
  convolution_param {
    num_output: 32
    pad: 1
    kernel_size: 4
    stride: 2
    weight_filler {
      type: "xavier"
    }
    engine: CAFFE
  }
}
layer {
  name: "concat5"
  type: "Concat"
  bottom: "conv2bo"
  bottom: "deconv5"
  top: "deconv5ao"
  concat_param {
    concat_dim: 1
  }
}
layer {
  name: "relu5"
  type: "ReLU"
  bottom: "deconv5ao"
  top: "score"
  relu_param {
    engine: CAFFE
  }
}
layer {
  name: "deconv6"
  type: "Deconvolution"
  bottom: "score"
  top: "deconv6"
  param {
    lr_mult: 1
  }
  param {
    lr_mult: 2
  }
  convolution_param {
    num_output: 32
    pad: 1
    kernel_size: 4
    stride: 2
    weight_filler {
      type: "xavier"
    }
    engine: CAFFE
  }
}
layer {
  name: "concat5"
  type: "Concat"
  bottom: "conv1co"
  bottom: "deconv6"
  top: "deconv6ao"
}
layer {
  name: "relu6"
  type: "ReLU"
  bottom: "deconv6ao"
  top: "deconv6r"
  relu_param {
    engine: CAFFE
  }
}
layer {
  name: "convX"
  type: "Convolution"
  bottom: "deconv6r"
  top: "score-final"
  param {
    lr_mult: 1
  }
  param {
    lr_mult: 2
  }
  convolution_param {
    num_output: 2
    pad: 1
    kernel_size: 3
    stride: 1
    weight_filler {
      type: "xavier"
    }
    bias_filler {
      type: "constant"
      value: 0
    }
    engine: CAFFE
  }
}
layer {
  name: "loss"
  type: "SoftmaxWeightedWithLoss"
  bottom: "score-final"
  bottom: "label"
  bottom: "weight"
  top: "loss"
  loss_param {
    normalize: false
  }
  softmax_param {
    engine: CAFFE
  }
}
I0622 09:35:40.278940 15936 layer_factory.hpp:77] Creating layer data
I0622 09:35:40.279109 15936 net.cpp:84] Creating Layer data
I0622 09:35:40.279115 15936 net.cpp:380] data -> data
I0622 09:35:40.279120 15936 net.cpp:380] data -> label
I0622 09:35:40.279124 15936 net.cpp:380] data -> weight
I0622 09:35:43.515321 15936 net.cpp:122] Setting up data
I0622 09:35:43.515341 15936 net.cpp:129] Top shape: 1 1 96 304 (29184)
I0622 09:35:43.515342 15936 net.cpp:129] Top shape: 1 1 96 304 (29184)
I0622 09:35:43.515344 15936 net.cpp:129] Top shape: 1 1 96 304 (29184)
I0622 09:35:43.515347 15936 net.cpp:137] Memory required for data: 350208
I0622 09:35:43.515349 15936 layer_factory.hpp:77] Creating layer conv1a
I0622 09:35:43.515362 15936 net.cpp:84] Creating Layer conv1a
I0622 09:35:43.515364 15936 net.cpp:406] conv1a <- data
I0622 09:35:43.515370 15936 net.cpp:380] conv1a -> conv1a
I0622 09:35:43.516294 15936 net.cpp:122] Setting up conv1a
I0622 09:35:43.516302 15936 net.cpp:129] Top shape: 1 32 96 304 (933888)
I0622 09:35:43.516304 15936 net.cpp:137] Memory required for data: 4085760
I0622 09:35:43.516310 15936 layer_factory.hpp:77] Creating layer relu1a
I0622 09:35:43.516315 15936 net.cpp:84] Creating Layer relu1a
I0622 09:35:43.516316 15936 net.cpp:406] relu1a <- conv1a
I0622 09:35:43.516319 15936 net.cpp:367] relu1a -> conv1a (in-place)
I0622 09:35:43.516324 15936 net.cpp:122] Setting up relu1a
I0622 09:35:43.516325 15936 net.cpp:129] Top shape: 1 32 96 304 (933888)
I0622 09:35:43.516327 15936 net.cpp:137] Memory required for data: 7821312
I0622 09:35:43.516329 15936 layer_factory.hpp:77] Creating layer conv1b
I0622 09:35:43.516333 15936 net.cpp:84] Creating Layer conv1b
I0622 09:35:43.516335 15936 net.cpp:406] conv1b <- conv1a
I0622 09:35:43.516337 15936 net.cpp:380] conv1b -> conv1b
I0622 09:35:43.516746 15936 net.cpp:122] Setting up conv1b
I0622 09:35:43.516753 15936 net.cpp:129] Top shape: 1 32 96 304 (933888)
I0622 09:35:43.516754 15936 net.cpp:137] Memory required for data: 11556864
I0622 09:35:43.516759 15936 layer_factory.hpp:77] Creating layer relu1b
I0622 09:35:43.516762 15936 net.cpp:84] Creating Layer relu1b
I0622 09:35:43.516764 15936 net.cpp:406] relu1b <- conv1b
I0622 09:35:43.516767 15936 net.cpp:367] relu1b -> conv1b (in-place)
I0622 09:35:43.516770 15936 net.cpp:122] Setting up relu1b
I0622 09:35:43.516772 15936 net.cpp:129] Top shape: 1 32 96 304 (933888)
I0622 09:35:43.516773 15936 net.cpp:137] Memory required for data: 15292416
I0622 09:35:43.516774 15936 layer_factory.hpp:77] Creating layer conv1c
I0622 09:35:43.516778 15936 net.cpp:84] Creating Layer conv1c
I0622 09:35:43.516779 15936 net.cpp:406] conv1c <- conv1b
I0622 09:35:43.516782 15936 net.cpp:380] conv1c -> conv1co
I0622 09:35:43.516935 15936 net.cpp:122] Setting up conv1c
I0622 09:35:43.516939 15936 net.cpp:129] Top shape: 1 32 96 304 (933888)
I0622 09:35:43.516940 15936 net.cpp:137] Memory required for data: 19027968
I0622 09:35:43.516944 15936 layer_factory.hpp:77] Creating layer conv1co_conv1c_0_split
I0622 09:35:43.516947 15936 net.cpp:84] Creating Layer conv1co_conv1c_0_split
I0622 09:35:43.516949 15936 net.cpp:406] conv1co_conv1c_0_split <- conv1co
I0622 09:35:43.516952 15936 net.cpp:380] conv1co_conv1c_0_split -> conv1co_conv1c_0_split_0
I0622 09:35:43.516955 15936 net.cpp:380] conv1co_conv1c_0_split -> conv1co_conv1c_0_split_1
I0622 09:35:43.516973 15936 net.cpp:122] Setting up conv1co_conv1c_0_split
I0622 09:35:43.516975 15936 net.cpp:129] Top shape: 1 32 96 304 (933888)
I0622 09:35:43.516978 15936 net.cpp:129] Top shape: 1 32 96 304 (933888)
I0622 09:35:43.516978 15936 net.cpp:137] Memory required for data: 26499072
I0622 09:35:43.516980 15936 layer_factory.hpp:77] Creating layer relu1c
I0622 09:35:43.516983 15936 net.cpp:84] Creating Layer relu1c
I0622 09:35:43.516984 15936 net.cpp:406] relu1c <- conv1co_conv1c_0_split_0
I0622 09:35:43.516986 15936 net.cpp:380] relu1c -> conv1c
I0622 09:35:43.516999 15936 net.cpp:122] Setting up relu1c
I0622 09:35:43.517001 15936 net.cpp:129] Top shape: 1 32 96 304 (933888)
I0622 09:35:43.517002 15936 net.cpp:137] Memory required for data: 30234624
I0622 09:35:43.517004 15936 layer_factory.hpp:77] Creating layer pool1
I0622 09:35:43.517007 15936 net.cpp:84] Creating Layer pool1
I0622 09:35:43.517009 15936 net.cpp:406] pool1 <- conv1c
I0622 09:35:43.517011 15936 net.cpp:380] pool1 -> pool1
I0622 09:35:43.517021 15936 net.cpp:122] Setting up pool1
I0622 09:35:43.517024 15936 net.cpp:129] Top shape: 1 32 48 152 (233472)
I0622 09:35:43.517025 15936 net.cpp:137] Memory required for data: 31168512
I0622 09:35:43.517026 15936 layer_factory.hpp:77] Creating layer conv2a
I0622 09:35:43.517030 15936 net.cpp:84] Creating Layer conv2a
I0622 09:35:43.517032 15936 net.cpp:406] conv2a <- pool1
I0622 09:35:43.517035 15936 net.cpp:380] conv2a -> conv2a
I0622 09:35:43.517179 15936 net.cpp:122] Setting up conv2a
I0622 09:35:43.517182 15936 net.cpp:129] Top shape: 1 32 48 152 (233472)
I0622 09:35:43.517184 15936 net.cpp:137] Memory required for data: 32102400
I0622 09:35:43.517186 15936 layer_factory.hpp:77] Creating layer relu2a
I0622 09:35:43.517189 15936 net.cpp:84] Creating Layer relu2a
I0622 09:35:43.517191 15936 net.cpp:406] relu2a <- conv2a
I0622 09:35:43.517194 15936 net.cpp:367] relu2a -> conv2a (in-place)
I0622 09:35:43.517195 15936 net.cpp:122] Setting up relu2a
I0622 09:35:43.517197 15936 net.cpp:129] Top shape: 1 32 48 152 (233472)
I0622 09:35:43.517199 15936 net.cpp:137] Memory required for data: 33036288
I0622 09:35:43.517200 15936 layer_factory.hpp:77] Creating layer conv2b
I0622 09:35:43.517204 15936 net.cpp:84] Creating Layer conv2b
I0622 09:35:43.517204 15936 net.cpp:406] conv2b <- conv2a
I0622 09:35:43.517207 15936 net.cpp:380] conv2b -> conv2bo
I0622 09:35:43.517354 15936 net.cpp:122] Setting up conv2b
I0622 09:35:43.517356 15936 net.cpp:129] Top shape: 1 32 48 152 (233472)
I0622 09:35:43.517357 15936 net.cpp:137] Memory required for data: 33970176
I0622 09:35:43.517361 15936 layer_factory.hpp:77] Creating layer conv2bo_conv2b_0_split
I0622 09:35:43.517364 15936 net.cpp:84] Creating Layer conv2bo_conv2b_0_split
I0622 09:35:43.517365 15936 net.cpp:406] conv2bo_conv2b_0_split <- conv2bo
I0622 09:35:43.517369 15936 net.cpp:380] conv2bo_conv2b_0_split -> conv2bo_conv2b_0_split_0
I0622 09:35:43.517371 15936 net.cpp:380] conv2bo_conv2b_0_split -> conv2bo_conv2b_0_split_1
I0622 09:35:43.517387 15936 net.cpp:122] Setting up conv2bo_conv2b_0_split
I0622 09:35:43.517390 15936 net.cpp:129] Top shape: 1 32 48 152 (233472)
I0622 09:35:43.517392 15936 net.cpp:129] Top shape: 1 32 48 152 (233472)
I0622 09:35:43.517393 15936 net.cpp:137] Memory required for data: 35837952
I0622 09:35:43.517395 15936 layer_factory.hpp:77] Creating layer relu2b
I0622 09:35:43.517397 15936 net.cpp:84] Creating Layer relu2b
I0622 09:35:43.517400 15936 net.cpp:406] relu2b <- conv2bo_conv2b_0_split_0
I0622 09:35:43.517401 15936 net.cpp:380] relu2b -> conv2b
I0622 09:35:43.517411 15936 net.cpp:122] Setting up relu2b
I0622 09:35:43.517415 15936 net.cpp:129] Top shape: 1 32 48 152 (233472)
I0622 09:35:43.517416 15936 net.cpp:137] Memory required for data: 36771840
I0622 09:35:43.517416 15936 layer_factory.hpp:77] Creating layer pool2
I0622 09:35:43.517419 15936 net.cpp:84] Creating Layer pool2
I0622 09:35:43.517421 15936 net.cpp:406] pool2 <- conv2b
I0622 09:35:43.517423 15936 net.cpp:380] pool2 -> pool2
I0622 09:35:43.517433 15936 net.cpp:122] Setting up pool2
I0622 09:35:43.517436 15936 net.cpp:129] Top shape: 1 32 24 76 (58368)
I0622 09:35:43.517437 15936 net.cpp:137] Memory required for data: 37005312
I0622 09:35:43.517438 15936 layer_factory.hpp:77] Creating layer conv3a
I0622 09:35:43.517442 15936 net.cpp:84] Creating Layer conv3a
I0622 09:35:43.517446 15936 net.cpp:406] conv3a <- pool2
I0622 09:35:43.517447 15936 net.cpp:380] conv3a -> conv3ao
I0622 09:35:43.517830 15936 net.cpp:122] Setting up conv3a
I0622 09:35:43.517837 15936 net.cpp:129] Top shape: 1 32 24 76 (58368)
I0622 09:35:43.517838 15936 net.cpp:137] Memory required for data: 37238784
I0622 09:35:43.517841 15936 layer_factory.hpp:77] Creating layer conv3ao_conv3a_0_split
I0622 09:35:43.517846 15936 net.cpp:84] Creating Layer conv3ao_conv3a_0_split
I0622 09:35:43.517849 15936 net.cpp:406] conv3ao_conv3a_0_split <- conv3ao
I0622 09:35:43.517853 15936 net.cpp:380] conv3ao_conv3a_0_split -> conv3ao_conv3a_0_split_0
I0622 09:35:43.517855 15936 net.cpp:380] conv3ao_conv3a_0_split -> conv3ao_conv3a_0_split_1
I0622 09:35:43.517875 15936 net.cpp:122] Setting up conv3ao_conv3a_0_split
I0622 09:35:43.517879 15936 net.cpp:129] Top shape: 1 32 24 76 (58368)
I0622 09:35:43.517880 15936 net.cpp:129] Top shape: 1 32 24 76 (58368)
I0622 09:35:43.517881 15936 net.cpp:137] Memory required for data: 37705728
I0622 09:35:43.517884 15936 layer_factory.hpp:77] Creating layer relu3a
I0622 09:35:43.517886 15936 net.cpp:84] Creating Layer relu3a
I0622 09:35:43.517887 15936 net.cpp:406] relu3a <- conv3ao_conv3a_0_split_0
I0622 09:35:43.517890 15936 net.cpp:380] relu3a -> conv3a
I0622 09:35:43.517900 15936 net.cpp:122] Setting up relu3a
I0622 09:35:43.517904 15936 net.cpp:129] Top shape: 1 32 24 76 (58368)
I0622 09:35:43.517904 15936 net.cpp:137] Memory required for data: 37939200
I0622 09:35:43.517905 15936 layer_factory.hpp:77] Creating layer pool3
I0622 09:35:43.517909 15936 net.cpp:84] Creating Layer pool3
I0622 09:35:43.517910 15936 net.cpp:406] pool3 <- conv3a
I0622 09:35:43.517912 15936 net.cpp:380] pool3 -> pool3
I0622 09:35:43.517922 15936 net.cpp:122] Setting up pool3
I0622 09:35:43.517925 15936 net.cpp:129] Top shape: 1 32 12 38 (14592)
I0622 09:35:43.517926 15936 net.cpp:137] Memory required for data: 37997568
I0622 09:35:43.517928 15936 layer_factory.hpp:77] Creating layer deconv4
I0622 09:35:43.517931 15936 net.cpp:84] Creating Layer deconv4
I0622 09:35:43.517933 15936 net.cpp:406] deconv4 <- pool3
I0622 09:35:43.517935 15936 net.cpp:380] deconv4 -> deconv4
I0622 09:35:43.518108 15936 net.cpp:122] Setting up deconv4
I0622 09:35:43.518112 15936 net.cpp:129] Top shape: 1 32 24 76 (58368)
I0622 09:35:43.518113 15936 net.cpp:137] Memory required for data: 38231040
I0622 09:35:43.518116 15936 layer_factory.hpp:77] Creating layer concat4
I0622 09:35:43.518120 15936 net.cpp:84] Creating Layer concat4
I0622 09:35:43.518121 15936 net.cpp:406] concat4 <- conv3ao_conv3a_0_split_1
I0622 09:35:43.518122 15936 net.cpp:406] concat4 <- deconv4
I0622 09:35:43.518126 15936 net.cpp:380] concat4 -> deconv4ao
I0622 09:35:43.518137 15936 net.cpp:122] Setting up concat4
I0622 09:35:43.518141 15936 net.cpp:129] Top shape: 1 64 24 76 (116736)
I0622 09:35:43.518141 15936 net.cpp:137] Memory required for data: 38697984
I0622 09:35:43.518143 15936 layer_factory.hpp:77] Creating layer relu4
I0622 09:35:43.518146 15936 net.cpp:84] Creating Layer relu4
I0622 09:35:43.518147 15936 net.cpp:406] relu4 <- deconv4ao
I0622 09:35:43.518149 15936 net.cpp:380] relu4 -> deconv4r
I0622 09:35:43.518160 15936 net.cpp:122] Setting up relu4
I0622 09:35:43.518163 15936 net.cpp:129] Top shape: 1 64 24 76 (116736)
I0622 09:35:43.518164 15936 net.cpp:137] Memory required for data: 39164928
I0622 09:35:43.518167 15936 layer_factory.hpp:77] Creating layer deconv5
I0622 09:35:43.518169 15936 net.cpp:84] Creating Layer deconv5
I0622 09:35:43.518170 15936 net.cpp:406] deconv5 <- deconv4r
I0622 09:35:43.518173 15936 net.cpp:380] deconv5 -> deconv5
I0622 09:35:43.518414 15936 net.cpp:122] Setting up deconv5
I0622 09:35:43.518419 15936 net.cpp:129] Top shape: 1 32 48 152 (233472)
I0622 09:35:43.518420 15936 net.cpp:137] Memory required for data: 40098816
I0622 09:35:43.518422 15936 layer_factory.hpp:77] Creating layer concat5
I0622 09:35:43.518425 15936 net.cpp:84] Creating Layer concat5
I0622 09:35:43.518427 15936 net.cpp:406] concat5 <- conv2bo_conv2b_0_split_1
I0622 09:35:43.518429 15936 net.cpp:406] concat5 <- deconv5
I0622 09:35:43.518432 15936 net.cpp:380] concat5 -> deconv5ao
I0622 09:35:43.518443 15936 net.cpp:122] Setting up concat5
I0622 09:35:43.518447 15936 net.cpp:129] Top shape: 1 64 48 152 (466944)
I0622 09:35:43.518448 15936 net.cpp:137] Memory required for data: 41966592
I0622 09:35:43.518450 15936 layer_factory.hpp:77] Creating layer relu5
I0622 09:35:43.518452 15936 net.cpp:84] Creating Layer relu5
I0622 09:35:43.518453 15936 net.cpp:406] relu5 <- deconv5ao
I0622 09:35:43.518456 15936 net.cpp:380] relu5 -> score
I0622 09:35:43.518466 15936 net.cpp:122] Setting up relu5
I0622 09:35:43.518470 15936 net.cpp:129] Top shape: 1 64 48 152 (466944)
I0622 09:35:43.518471 15936 net.cpp:137] Memory required for data: 43834368
I0622 09:35:43.518471 15936 layer_factory.hpp:77] Creating layer deconv6
I0622 09:35:43.518474 15936 net.cpp:84] Creating Layer deconv6
I0622 09:35:43.518476 15936 net.cpp:406] deconv6 <- score
I0622 09:35:43.518478 15936 net.cpp:380] deconv6 -> deconv6
I0622 09:35:43.518718 15936 net.cpp:122] Setting up deconv6
I0622 09:35:43.518721 15936 net.cpp:129] Top shape: 1 32 96 304 (933888)
I0622 09:35:43.518723 15936 net.cpp:137] Memory required for data: 47569920
I0622 09:35:43.518728 15936 layer_factory.hpp:77] Creating layer concat5
I0622 09:35:43.518730 15936 net.cpp:84] Creating Layer concat5
I0622 09:35:43.518733 15936 net.cpp:406] concat5 <- conv1co_conv1c_0_split_1
I0622 09:35:43.518734 15936 net.cpp:406] concat5 <- deconv6
I0622 09:35:43.518738 15936 net.cpp:380] concat5 -> deconv6ao
I0622 09:35:43.518749 15936 net.cpp:122] Setting up concat5
I0622 09:35:43.518752 15936 net.cpp:129] Top shape: 1 64 96 304 (1867776)
I0622 09:35:43.518754 15936 net.cpp:137] Memory required for data: 55041024
I0622 09:35:43.518755 15936 layer_factory.hpp:77] Creating layer relu6
I0622 09:35:43.518757 15936 net.cpp:84] Creating Layer relu6
I0622 09:35:43.518759 15936 net.cpp:406] relu6 <- deconv6ao
I0622 09:35:43.518761 15936 net.cpp:380] relu6 -> deconv6r
I0622 09:35:43.518771 15936 net.cpp:122] Setting up relu6
I0622 09:35:43.518774 15936 net.cpp:129] Top shape: 1 64 96 304 (1867776)
I0622 09:35:43.518775 15936 net.cpp:137] Memory required for data: 62512128
I0622 09:35:43.518776 15936 layer_factory.hpp:77] Creating layer convX
I0622 09:35:43.518780 15936 net.cpp:84] Creating Layer convX
I0622 09:35:43.518782 15936 net.cpp:406] convX <- deconv6r
I0622 09:35:43.518785 15936 net.cpp:380] convX -> score-final
I0622 09:35:43.518915 15936 net.cpp:122] Setting up convX
I0622 09:35:43.518919 15936 net.cpp:129] Top shape: 1 2 96 304 (58368)
I0622 09:35:43.518921 15936 net.cpp:137] Memory required for data: 62745600
I0622 09:35:43.518924 15936 layer_factory.hpp:77] Creating layer loss
I0622 09:35:43.518929 15936 net.cpp:84] Creating Layer loss
I0622 09:35:43.518930 15936 net.cpp:406] loss <- score-final
I0622 09:35:43.518932 15936 net.cpp:406] loss <- label
I0622 09:35:43.518934 15936 net.cpp:406] loss <- weight
I0622 09:35:43.518937 15936 net.cpp:380] loss -> loss
…
I0622 09:41:02.264804 15936 upgrade_proto.cpp:67] Attempting to upgrade input file specified using deprecated input fields: /home/atemmar/Documents/Data/FromFirasPng//models/U-net/unet_deploy.prototxt
I0622 09:41:02.264820 15936 upgrade_proto.cpp:70] Successfully upgraded file specified using deprecated input fields.
W0622 09:41:02.264822 15936 upgrade_proto.cpp:72] Note that future Caffe releases will only support input layers and not input fields.
I0622 09:41:02.264961 15936 net.cpp:51] Initializing net from parameters: 
name: "unet"
state {
  phase: TEST
  level: 0
}
layer {
  name: "input"
  type: "Input"
  top: "data"
  input_param {
    shape {
      dim: 1
      dim: 1
      dim: 96
      dim: 304
    }
  }
}
layer {
  name: "conv1a"
  type: "Convolution"
  bottom: "data"
  top: "conv1a"
  param {
    lr_mult: 1
  }
  param {
    lr_mult: 2
  }
  convolution_param {
    num_output: 32
    pad: 1
    kernel_size: 3
    stride: 1
    weight_filler {
      type: "xavier"
    }
    bias_filler {
      type: "constant"
      value: 0
    }
    engine: CAFFE
  }
}
layer {
  name: "relu1a"
  type: "ReLU"
  bottom: "conv1a"
  top: "conv1a"
  relu_param {
    engine: CAFFE
  }
}
layer {
  name: "conv1b"
  type: "Convolution"
  bottom: "conv1a"
  top: "conv1b"
  param {
    lr_mult: 1
  }
  param {
    lr_mult: 2
  }
  convolution_param {
    num_output: 32
    pad: 1
    kernel_size: 3
    stride: 1
    weight_filler {
      type: "xavier"
    }
    bias_filler {
      type: "constant"
      value: 0
    }
    engine: CAFFE
  }
}
layer {
  name: "relu1b"
  type: "ReLU"
  bottom: "conv1b"
  top: "conv1b"
  relu_param {
    engine: CAFFE
  }
}
layer {
  name: "conv1c"
  type: "Convolution"
  bottom: "conv1b"
  top: "conv1co"
  param {
    lr_mult: 1
  }
  param {
    lr_mult: 2
  }
  convolution_param {
    num_output: 32
    pad: 1
    kernel_size: 3
    stride: 1
    weight_filler {
      type: "xavier"
    }
    bias_filler {
      type: "constant"
      value: 0
    }
    engine: CAFFE
  }
}
layer {
  name: "relu1c"
  type: "ReLU"
  bottom: "conv1co"
  top: "conv1c"
  relu_param {
    engine: CAFFE
  }
}
layer {
  name: "pool1"
  type: "Pooling"
  bottom: "conv1c"
  top: "pool1"
  pooling_param {
    pool: AVE
    kernel_size: 3
    stride: 2
    engine: CAFFE
  }
}
layer {
  name: "conv2a"
  type: "Convolution"
  bottom: "pool1"
  top: "conv2a"
  param {
    lr_mult: 1
  }
  param {
    lr_mult: 2
  }
  convolution_param {
    num_output: 32
    pad: 1
    kernel_size: 3
    stride: 1
    weight_filler {
      type: "xavier"
    }
    bias_filler {
      type: "constant"
      value: 0
    }
    engine: CAFFE
  }
}
layer {
  name: "relu2a"
  type: "ReLU"
  bottom: "conv2a"
  top: "conv2a"
  relu_param {
    engine: CAFFE
  }
}
layer {
  name: "conv2b"
  type: "Convolution"
  bottom: "conv2a"
  top: "conv2bo"
  param {
    lr_mult: 1
  }
  param {
    lr_mult: 2
  }
  convolution_param {
    num_output: 32
    pad: 1
    kernel_size: 3
    stride: 1
    weight_filler {
      type: "xavier"
    }
    bias_filler {
      type: "constant"
      value: 0
    }
    engine: CAFFE
  }
}
layer {
  name: "relu2b"
  type: "ReLU"
  bottom: "conv2bo"
  top: "conv2b"
  relu_param {
    engine: CAFFE
  }
}
layer {
  name: "pool2"
  type: "Pooling"
  bottom: "conv2b"
  top: "pool2"
  pooling_param {
    pool: AVE
    kernel_size: 3
    stride: 2
    engine: CAFFE
  }
}
layer {
  name: "conv3a"
  type: "Convolution"
  bottom: "pool2"
  top: "conv3ao"
  param {
    lr_mult: 1
  }
  param {
    lr_mult: 2
  }
  convolution_param {
    num_output: 32
    pad: 1
    kernel_size: 3
    stride: 1
    weight_filler {
      type: "xavier"
    }
    bias_filler {
      type: "constant"
      value: 0
    }
    engine: CAFFE
  }
}
layer {
  name: "relu3a"
  type: "ReLU"
  bottom: "conv3ao"
  top: "conv3a"
  relu_param {
    engine: CAFFE
  }
}
layer {
  name: "pool3"
  type: "Pooling"
  bottom: "conv3a"
  top: "pool3"
  pooling_param {
    pool: AVE
    kernel_size: 3
    stride: 2
    engine: CAFFE
  }
}
layer {
  name: "deconv4"
  type: "Deconvolution"
  bottom: "pool3"
  top: "deconv4"
  param {
    lr_mult: 1
  }
  param {
    lr_mult: 2
  }
  convolution_param {
    num_output: 32
    pad: 1
    kernel_size: 4
    stride: 2
    weight_filler {
      type: "xavier"
    }
    engine: CAFFE
  }
}
layer {
  name: "concat4"
  type: "Concat"
  bottom: "conv3ao"
  bottom: "deconv4"
  top: "deconv4ao"
}
layer {
  name: "relu4"
  type: "ReLU"
  bottom: "deconv4ao"
  top: "deconv4r"
  relu_param {
    engine: CAFFE
  }
}
layer {
  name: "deconv5"
  type: "Deconvolution"
  bottom: "deconv4r"
  top: "deconv5"
  param {
    lr_mult: 1
  }
  param {
    lr_mult: 2
  }
  convolution_param {
    num_output: 32
    pad: 1
    kernel_size: 4
    stride: 2
    weight_filler {
      type: "xavier"
    }
    engine: CAFFE
  }
}
layer {
  name: "concat5"
  type: "Concat"
  bottom: "conv2bo"
  bottom: "deconv5"
  top: "deconv5ao"
  concat_param {
    concat_dim: 1
  }
}
layer {
  name: "relu5"
  type: "ReLU"
  bottom: "deconv5ao"
  top: "score"
  relu_param {
    engine: CAFFE
  }
}
layer {
  name: "deconv6"
  type: "Deconvolution"
  bottom: "score"
  top: "deconv6"
  param {
    lr_mult: 1
  }
  param {
    lr_mult: 2
  }
  convolution_param {
    num_output: 32
    pad: 1
    kernel_size: 4
    stride: 2
    weight_filler {
      type: "xavier"
    }
    engine: CAFFE
  }
}
layer {
  name: "concat5"
  type: "Concat"
  bottom: "conv1co"
  bottom: "deconv6"
  top: "deconv6ao"
}
layer {
  name: "relu6"
  type: "ReLU"
  bottom: "deconv6ao"
  top: "deconv6r"
  relu_param {
    engine: CAFFE
  }
}
layer {
  name: "convX"
  type: "Convolution"
  bottom: "deconv6r"
  top: "score-final"
  param {
    lr_mult: 1
  }
  param {
    lr_mult: 2
  }
  convolution_param {
    num_output: 2
    pad: 1
    kernel_size: 3
    stride: 1
    weight_filler {
      type: "xavier"
    }
    bias_filler {
      type: "constant"
      value: 0
    }
    engine: CAFFE
  }
}
I0622 09:41:02.265053 15936 layer_factory.hpp:77] Creating layer input
I0622 09:41:02.265060 15936 net.cpp:84] Creating Layer input
I0622 09:41:02.265064 15936 net.cpp:380] input -> data
I0622 09:41:02.265453 15936 net.cpp:122] Setting up input
I0622 09:41:02.265466 15936 net.cpp:129] Top shape: 1 1 96 304 (29184)
I0622 09:41:02.265468 15936 net.cpp:137] Memory required for data: 116736
I0622 09:41:02.265472 15936 layer_factory.hpp:77] Creating layer conv1a
I0622 09:41:02.265485 15936 net.cpp:84] Creating Layer conv1a
I0622 09:41:02.265486 15936 net.cpp:406] conv1a <- data
I0622 09:41:02.265491 15936 net.cpp:380] conv1a -> conv1a
I0622 09:41:02.266209 15936 net.cpp:122] Setting up conv1a
I0622 09:41:02.266221 15936 net.cpp:129] Top shape: 1 32 96 304 (933888)
I0622 09:41:02.266222 15936 net.cpp:137] Memory required for data: 3852288
I0622 09:41:02.266229 15936 layer_factory.hpp:77] Creating layer relu1a
I0622 09:41:02.266235 15936 net.cpp:84] Creating Layer relu1a
I0622 09:41:02.266237 15936 net.cpp:406] relu1a <- conv1a
I0622 09:41:02.266239 15936 net.cpp:367] relu1a -> conv1a (in-place)
I0622 09:41:02.266244 15936 net.cpp:122] Setting up relu1a
I0622 09:41:02.266248 15936 net.cpp:129] Top shape: 1 32 96 304 (933888)
I0622 09:41:02.266249 15936 net.cpp:137] Memory required for data: 7587840
I0622 09:41:02.266250 15936 layer_factory.hpp:77] Creating layer conv1b
I0622 09:41:02.266254 15936 net.cpp:84] Creating Layer conv1b
I0622 09:41:02.266257 15936 net.cpp:406] conv1b <- conv1a
I0622 09:41:02.266259 15936 net.cpp:380] conv1b -> conv1b
I0622 09:41:02.266685 15936 net.cpp:122] Setting up conv1b
I0622 09:41:02.266691 15936 net.cpp:129] Top shape: 1 32 96 304 (933888)
I0622 09:41:02.266693 15936 net.cpp:137] Memory required for data: 11323392
I0622 09:41:02.266698 15936 layer_factory.hpp:77] Creating layer relu1b
I0622 09:41:02.266701 15936 net.cpp:84] Creating Layer relu1b
I0622 09:41:02.266703 15936 net.cpp:406] relu1b <- conv1b
I0622 09:41:02.266705 15936 net.cpp:367] relu1b -> conv1b (in-place)
I0622 09:41:02.266708 15936 net.cpp:122] Setting up relu1b
I0622 09:41:02.266710 15936 net.cpp:129] Top shape: 1 32 96 304 (933888)
I0622 09:41:02.266712 15936 net.cpp:137] Memory required for data: 15058944
I0622 09:41:02.266713 15936 layer_factory.hpp:77] Creating layer conv1c
I0622 09:41:02.266718 15936 net.cpp:84] Creating Layer conv1c
I0622 09:41:02.266719 15936 net.cpp:406] conv1c <- conv1b
I0622 09:41:02.266722 15936 net.cpp:380] conv1c -> conv1co
I0622 09:41:02.266873 15936 net.cpp:122] Setting up conv1c
I0622 09:41:02.266877 15936 net.cpp:129] Top shape: 1 32 96 304 (933888)
I0622 09:41:02.266880 15936 net.cpp:137] Memory required for data: 18794496
I0622 09:41:02.266883 15936 layer_factory.hpp:77] Creating layer conv1co_conv1c_0_split
I0622 09:41:02.266886 15936 net.cpp:84] Creating Layer conv1co_conv1c_0_split
I0622 09:41:02.266887 15936 net.cpp:406] conv1co_conv1c_0_split <- conv1co
I0622 09:41:02.266891 15936 net.cpp:380] conv1co_conv1c_0_split -> conv1co_conv1c_0_split_0
I0622 09:41:02.266894 15936 net.cpp:380] conv1co_conv1c_0_split -> conv1co_conv1c_0_split_1
I0622 09:41:02.266911 15936 net.cpp:122] Setting up conv1co_conv1c_0_split
I0622 09:41:02.266914 15936 net.cpp:129] Top shape: 1 32 96 304 (933888)
I0622 09:41:02.266916 15936 net.cpp:129] Top shape: 1 32 96 304 (933888)
I0622 09:41:02.266918 15936 net.cpp:137] Memory required for data: 26265600
I0622 09:41:02.266919 15936 layer_factory.hpp:77] Creating layer relu1c
I0622 09:41:02.266921 15936 net.cpp:84] Creating Layer relu1c
I0622 09:41:02.266923 15936 net.cpp:406] relu1c <- conv1co_conv1c_0_split_0
I0622 09:41:02.266927 15936 net.cpp:380] relu1c -> conv1c
I0622 09:41:02.266937 15936 net.cpp:122] Setting up relu1c
I0622 09:41:02.266940 15936 net.cpp:129] Top shape: 1 32 96 304 (933888)
I0622 09:41:02.266942 15936 net.cpp:137] Memory required for data: 30001152
I0622 09:41:02.266942 15936 layer_factory.hpp:77] Creating layer pool1
I0622 09:41:02.266947 15936 net.cpp:84] Creating Layer pool1
I0622 09:41:02.266947 15936 net.cpp:406] pool1 <- conv1c
I0622 09:41:02.266950 15936 net.cpp:380] pool1 -> pool1
I0622 09:41:02.266960 15936 net.cpp:122] Setting up pool1
I0622 09:41:02.266963 15936 net.cpp:129] Top shape: 1 32 48 152 (233472)
I0622 09:41:02.266965 15936 net.cpp:137] Memory required for data: 30935040
I0622 09:41:02.266966 15936 layer_factory.hpp:77] Creating layer conv2a
I0622 09:41:02.266970 15936 net.cpp:84] Creating Layer conv2a
I0622 09:41:02.266973 15936 net.cpp:406] conv2a <- pool1
I0622 09:41:02.266974 15936 net.cpp:380] conv2a -> conv2a
I0622 09:41:02.267120 15936 net.cpp:122] Setting up conv2a
I0622 09:41:02.267124 15936 net.cpp:129] Top shape: 1 32 48 152 (233472)
I0622 09:41:02.267125 15936 net.cpp:137] Memory required for data: 31868928
I0622 09:41:02.267128 15936 layer_factory.hpp:77] Creating layer relu2a
I0622 09:41:02.267130 15936 net.cpp:84] Creating Layer relu2a
I0622 09:41:02.267132 15936 net.cpp:406] relu2a <- conv2a
I0622 09:41:02.267135 15936 net.cpp:367] relu2a -> conv2a (in-place)
I0622 09:41:02.267138 15936 net.cpp:122] Setting up relu2a
I0622 09:41:02.267139 15936 net.cpp:129] Top shape: 1 32 48 152 (233472)
I0622 09:41:02.267141 15936 net.cpp:137] Memory required for data: 32802816
I0622 09:41:02.267143 15936 layer_factory.hpp:77] Creating layer conv2b
I0622 09:41:02.267146 15936 net.cpp:84] Creating Layer conv2b
I0622 09:41:02.267148 15936 net.cpp:406] conv2b <- conv2a
I0622 09:41:02.267150 15936 net.cpp:380] conv2b -> conv2bo
I0622 09:41:02.267297 15936 net.cpp:122] Setting up conv2b
I0622 09:41:02.267300 15936 net.cpp:129] Top shape: 1 32 48 152 (233472)
I0622 09:41:02.267302 15936 net.cpp:137] Memory required for data: 33736704
I0622 09:41:02.267305 15936 layer_factory.hpp:77] Creating layer conv2bo_conv2b_0_split
I0622 09:41:02.267308 15936 net.cpp:84] Creating Layer conv2bo_conv2b_0_split
I0622 09:41:02.267309 15936 net.cpp:406] conv2bo_conv2b_0_split <- conv2bo
I0622 09:41:02.267313 15936 net.cpp:380] conv2bo_conv2b_0_split -> conv2bo_conv2b_0_split_0
I0622 09:41:02.267315 15936 net.cpp:380] conv2bo_conv2b_0_split -> conv2bo_conv2b_0_split_1
I0622 09:41:02.267333 15936 net.cpp:122] Setting up conv2bo_conv2b_0_split
I0622 09:41:02.267335 15936 net.cpp:129] Top shape: 1 32 48 152 (233472)
I0622 09:41:02.267338 15936 net.cpp:129] Top shape: 1 32 48 152 (233472)
I0622 09:41:02.267338 15936 net.cpp:137] Memory required for data: 35604480
I0622 09:41:02.267340 15936 layer_factory.hpp:77] Creating layer relu2b
I0622 09:41:02.267343 15936 net.cpp:84] Creating Layer relu2b
I0622 09:41:02.267344 15936 net.cpp:406] relu2b <- conv2bo_conv2b_0_split_0
I0622 09:41:02.267346 15936 net.cpp:380] relu2b -> conv2b
I0622 09:41:02.267357 15936 net.cpp:122] Setting up relu2b
I0622 09:41:02.267360 15936 net.cpp:129] Top shape: 1 32 48 152 (233472)
I0622 09:41:02.267362 15936 net.cpp:137] Memory required for data: 36538368
I0622 09:41:02.267364 15936 layer_factory.hpp:77] Creating layer pool2
I0622 09:41:02.267366 15936 net.cpp:84] Creating Layer pool2
I0622 09:41:02.267367 15936 net.cpp:406] pool2 <- conv2b
I0622 09:41:02.267370 15936 net.cpp:380] pool2 -> pool2
I0622 09:41:02.267380 15936 net.cpp:122] Setting up pool2
I0622 09:41:02.267383 15936 net.cpp:129] Top shape: 1 32 24 76 (58368)
I0622 09:41:02.267385 15936 net.cpp:137] Memory required for data: 36771840
I0622 09:41:02.267385 15936 layer_factory.hpp:77] Creating layer conv3a
I0622 09:41:02.267390 15936 net.cpp:84] Creating Layer conv3a
I0622 09:41:02.267391 15936 net.cpp:406] conv3a <- pool2
I0622 09:41:02.267393 15936 net.cpp:380] conv3a -> conv3ao
I0622 09:41:02.267783 15936 net.cpp:122] Setting up conv3a
I0622 09:41:02.267789 15936 net.cpp:129] Top shape: 1 32 24 76 (58368)
I0622 09:41:02.267791 15936 net.cpp:137] Memory required for data: 37005312
I0622 09:41:02.267794 15936 layer_factory.hpp:77] Creating layer conv3ao_conv3a_0_split
I0622 09:41:02.267798 15936 net.cpp:84] Creating Layer conv3ao_conv3a_0_split
I0622 09:41:02.267801 15936 net.cpp:406] conv3ao_conv3a_0_split <- conv3ao
I0622 09:41:02.267803 15936 net.cpp:380] conv3ao_conv3a_0_split -> conv3ao_conv3a_0_split_0
I0622 09:41:02.267807 15936 net.cpp:380] conv3ao_conv3a_0_split -> conv3ao_conv3a_0_split_1
I0622 09:41:02.267827 15936 net.cpp:122] Setting up conv3ao_conv3a_0_split
I0622 09:41:02.267828 15936 net.cpp:129] Top shape: 1 32 24 76 (58368)
I0622 09:41:02.267832 15936 net.cpp:129] Top shape: 1 32 24 76 (58368)
I0622 09:41:02.267834 15936 net.cpp:137] Memory required for data: 37472256
I0622 09:41:02.267835 15936 layer_factory.hpp:77] Creating layer relu3a
I0622 09:41:02.267838 15936 net.cpp:84] Creating Layer relu3a
I0622 09:41:02.267841 15936 net.cpp:406] relu3a <- conv3ao_conv3a_0_split_0
I0622 09:41:02.267843 15936 net.cpp:380] relu3a -> conv3a
I0622 09:41:02.267853 15936 net.cpp:122] Setting up relu3a
I0622 09:41:02.267858 15936 net.cpp:129] Top shape: 1 32 24 76 (58368)
I0622 09:41:02.267858 15936 net.cpp:137] Memory required for data: 37705728
I0622 09:41:02.267859 15936 layer_factory.hpp:77] Creating layer pool3
I0622 09:41:02.267863 15936 net.cpp:84] Creating Layer pool3
I0622 09:41:02.267863 15936 net.cpp:406] pool3 <- conv3a
I0622 09:41:02.267865 15936 net.cpp:380] pool3 -> pool3
I0622 09:41:02.267875 15936 net.cpp:122] Setting up pool3
I0622 09:41:02.267879 15936 net.cpp:129] Top shape: 1 32 12 38 (14592)
I0622 09:41:02.267879 15936 net.cpp:137] Memory required for data: 37764096
I0622 09:41:02.267881 15936 layer_factory.hpp:77] Creating layer deconv4
I0622 09:41:02.267885 15936 net.cpp:84] Creating Layer deconv4
I0622 09:41:02.267886 15936 net.cpp:406] deconv4 <- pool3
I0622 09:41:02.267889 15936 net.cpp:380] deconv4 -> deconv4
I0622 09:41:02.268064 15936 net.cpp:122] Setting up deconv4
I0622 09:41:02.268067 15936 net.cpp:129] Top shape: 1 32 24 76 (58368)
I0622 09:41:02.268069 15936 net.cpp:137] Memory required for data: 37997568
I0622 09:41:02.268072 15936 layer_factory.hpp:77] Creating layer concat4
I0622 09:41:02.268074 15936 net.cpp:84] Creating Layer concat4
I0622 09:41:02.268076 15936 net.cpp:406] concat4 <- conv3ao_conv3a_0_split_1
I0622 09:41:02.268079 15936 net.cpp:406] concat4 <- deconv4
I0622 09:41:02.268080 15936 net.cpp:380] concat4 -> deconv4ao
I0622 09:41:02.268092 15936 net.cpp:122] Setting up concat4
I0622 09:41:02.268095 15936 net.cpp:129] Top shape: 1 64 24 76 (116736)
I0622 09:41:02.268096 15936 net.cpp:137] Memory required for data: 38464512
I0622 09:41:02.268097 15936 layer_factory.hpp:77] Creating layer relu4
I0622 09:41:02.268100 15936 net.cpp:84] Creating Layer relu4
I0622 09:41:02.268101 15936 net.cpp:406] relu4 <- deconv4ao
I0622 09:41:02.268103 15936 net.cpp:380] relu4 -> deconv4r
I0622 09:41:02.268113 15936 net.cpp:122] Setting up relu4
I0622 09:41:02.268116 15936 net.cpp:129] Top shape: 1 64 24 76 (116736)
I0622 09:41:02.268118 15936 net.cpp:137] Memory required for data: 38931456
I0622 09:41:02.268120 15936 layer_factory.hpp:77] Creating layer deconv5
I0622 09:41:02.268122 15936 net.cpp:84] Creating Layer deconv5
I0622 09:41:02.268123 15936 net.cpp:406] deconv5 <- deconv4r
I0622 09:41:02.268126 15936 net.cpp:380] deconv5 -> deconv5
I0622 09:41:02.268365 15936 net.cpp:122] Setting up deconv5
I0622 09:41:02.268369 15936 net.cpp:129] Top shape: 1 32 48 152 (233472)
I0622 09:41:02.268371 15936 net.cpp:137] Memory required for data: 39865344
I0622 09:41:02.268374 15936 layer_factory.hpp:77] Creating layer concat5
I0622 09:41:02.268378 15936 net.cpp:84] Creating Layer concat5
I0622 09:41:02.268378 15936 net.cpp:406] concat5 <- conv2bo_conv2b_0_split_1
I0622 09:41:02.268381 15936 net.cpp:406] concat5 <- deconv5
I0622 09:41:02.268383 15936 net.cpp:380] concat5 -> deconv5ao
I0622 09:41:02.268394 15936 net.cpp:122] Setting up concat5
I0622 09:41:02.268398 15936 net.cpp:129] Top shape: 1 64 48 152 (466944)
I0622 09:41:02.268399 15936 net.cpp:137] Memory required for data: 41733120
I0622 09:41:02.268400 15936 layer_factory.hpp:77] Creating layer relu5
I0622 09:41:02.268404 15936 net.cpp:84] Creating Layer relu5
I0622 09:41:02.268405 15936 net.cpp:406] relu5 <- deconv5ao
I0622 09:41:02.268409 15936 net.cpp:380] relu5 -> score
I0622 09:41:02.268422 15936 net.cpp:122] Setting up relu5
I0622 09:41:02.268425 15936 net.cpp:129] Top shape: 1 64 48 152 (466944)
I0622 09:41:02.268427 15936 net.cpp:137] Memory required for data: 43600896
I0622 09:41:02.268429 15936 layer_factory.hpp:77] Creating layer deconv6
I0622 09:41:02.268431 15936 net.cpp:84] Creating Layer deconv6
I0622 09:41:02.268434 15936 net.cpp:406] deconv6 <- score
I0622 09:41:02.268436 15936 net.cpp:380] deconv6 -> deconv6
I0622 09:41:02.268678 15936 net.cpp:122] Setting up deconv6
I0622 09:41:02.268682 15936 net.cpp:129] Top shape: 1 32 96 304 (933888)
I0622 09:41:02.268684 15936 net.cpp:137] Memory required for data: 47336448
I0622 09:41:02.268688 15936 layer_factory.hpp:77] Creating layer concat5
I0622 09:41:02.268692 15936 net.cpp:84] Creating Layer concat5
I0622 09:41:02.268693 15936 net.cpp:406] concat5 <- conv1co_conv1c_0_split_1
I0622 09:41:02.268695 15936 net.cpp:406] concat5 <- deconv6
I0622 09:41:02.268698 15936 net.cpp:380] concat5 -> deconv6ao
I0622 09:41:02.268709 15936 net.cpp:122] Setting up concat5
I0622 09:41:02.268713 15936 net.cpp:129] Top shape: 1 64 96 304 (1867776)
I0622 09:41:02.268714 15936 net.cpp:137] Memory required for data: 54807552
I0622 09:41:02.268715 15936 layer_factory.hpp:77] Creating layer relu6
I0622 09:41:02.268718 15936 net.cpp:84] Creating Layer relu6
I0622 09:41:02.268719 15936 net.cpp:406] relu6 <- deconv6ao
I0622 09:41:02.268721 15936 net.cpp:380] relu6 -> deconv6r
I0622 09:41:02.268733 15936 net.cpp:122] Setting up relu6
I0622 09:41:02.268735 15936 net.cpp:129] Top shape: 1 64 96 304 (1867776)
I0622 09:41:02.268736 15936 net.cpp:137] Memory required for data: 62278656
I0622 09:41:02.268738 15936 layer_factory.hpp:77] Creating layer convX
I0622 09:41:02.268743 15936 net.cpp:84] Creating Layer convX
I0622 09:41:02.268744 15936 net.cpp:406] convX <- deconv6r
I0622 09:41:02.268746 15936 net.cpp:380] convX -> score-final
I0622 09:41:02.268872 15936 net.cpp:122] Setting up convX
I0622 09:41:02.268875 15936 net.cpp:129] Top shape: 1 2 96 304 (58368)
I0622 09:41:02.268877 15936 net.cpp:137] Memory required for data: 62512128
I0622 09:41:02.268880 15936 net.cpp:200] convX does not need backward computation.
I0622 09:41:02.268883 15936 net.cpp:200] relu6 does not need backward computation.
I0622 09:41:02.268884 15936 net.cpp:200] concat5 does not need backward computation.
I0622 09:41:02.268887 15936 net.cpp:200] deconv6 does not need backward computation.
…
